…
able from keras itself:&lt;/p&gt;
&lt;pre class="r"&gt;&lt;code&gt;library(keras)
library(lime)
library(magick)

model &amp;lt;- application_vgg16(
  weights = &amp;quot;imagenet&amp;quot;,
  include_top = TRUE
)
model&lt;/code&gt;&lt;/pre&gt;
&lt;pre&gt;&lt;code&gt;Model
______________________________________________________________________________________________
Layer (type)                              Output Shape                         Param #        
==============================================================================================
input_1 (InputLayer)                      (None, 224, 224, 3)                  0              
______________________________________________________________________________________________
block1_conv1 (Conv2D)                     (None, 224, 224, 64)                 1792           
______________________________________________________________________________________________
block1_conv2 (Conv2D)                     (None, 224, 224, 64)                 36928          
______________________________________________________________________________________________
block1_pool (MaxPooling2D)                (None, 112, 112, 64)                 0              
______________________________________________________________________________________________
block2_conv1 (Conv2D)                     (None, 112, 112, 128)                73856          
______________________________________________________________________________________________
block2_conv2 (Conv2D)                     (None, 112, 112, 128)                147584         
______________________________________________________________________________________________
block2_pool (MaxPooling2D)                (None, 56, 56, 128)                  0              
______________________________________________________________________________________________
block3_conv1 (Conv2D)                     (None, 56, 56, 256)                  295168         
______________________________________________________________________________________________
block3_conv2 (Conv2D)                     (None, 56, 56, 256)                  590080         
______________________________________________________________________________________________
block3_conv3 (Conv2D)                     (None, 56, 56, 256)                  590080         
______________________________________________________________________________________________
block3_pool (MaxPooling2D)                (None, 28, 28, 256)                  0              
______________________________________________________________________________________________
block4_conv1 (Conv2D)                     (None, 28, 28, 512)                  1180160        
______________________________________________________________________________________________
block4_conv2 (Conv2D)                     (None, 28, 28, 512)                  2359808        
______________________________________________________________________________________________
block4_conv3 (Conv2D)                     (None, 28, 28, 512)                  2359808        
______________________________________________________________________________________________
block4_pool (MaxPooling2D)                (None, 14, 14, 512)                  0              
______________________________________________________________________________________________
block5_conv1 (Conv2D)                     (None, 14, 14, 512)                  2359808        
______________________________________________________________________________________________
block5_conv2 (Conv2D)                     (None, 14, 14, 512)                  2359808        
______________________________________________________________________________________________
block5_conv3 (Conv2D)                     (None, 14, 14, 512)                  2359808        
______________________________________________________________________________________________
block5_pool (MaxPooling2D)                (None, 7, 7, 512)                    0              
______________________________________________________________________________________________
flatten (Flatten)                         (None, 25088)                        0              
______________________________________________________________________________________________
fc1 (Dense)                               (None, 4096)                         102764544      
______________________________________________________________________________________________
fc2 (Dense)                               (None, 4096)                         16781312       
______________________________________________________________________________________________
predictions (Dense)                       (None, 1000)                         4097000        
==============================================================================================
Total params: 138,357,544
Trainable params: 138,357,544
Non-trainable params: 0
______________________________________________________________________________________________
&lt;/code&gt;&lt;/pre&gt;
&lt;p&gt;The vgg16 model is an image classification model that has been build as part of the ImageNet competition where the goal is to classify pictures into 1000 categories with the highest accuracy. As we can see it is fairly complicated.&lt;/p&gt;
…
&lt;p&gt;The &lt;code&gt;input_shape&lt;/code&gt; argument to the first layer specifies the shape of the input data (a length 784 numeric vector representing a grayscale image). The final layer outputs a length 10 numeric vector (probabilities for each digit) using a &lt;a href="https://en.wikipedia.org/wiki/Softmax_function"&gt;softmax activation function&lt;/a&gt;.&lt;/p&gt;
&lt;p&gt;Use the &lt;code&gt;summary()&lt;/code&gt; function to print the details of the model:&lt;/p&gt;
&lt;pre class="r"&gt;&lt;code&gt;summary(model)&lt;/code&gt;&lt;/pre&gt;
&lt;pre style="box-shadow: none;"&gt;&lt;code&gt;Model
________________________________________________________________________________
Layer (type)                        Output Shape                    Param #     
================================================================================
dense_1 (Dense)                     (None, 256)                     200960      
________________________________________________________________________________
dropout_1 (Dropout)                 (None, 256)                     0           
________________________________________________________________________________
dense_2 (Dense)                     (None, 128)                     32896       
________________________________________________________________________________
dropout_2 (Dropout)                 (None, 128)                     0           
________________________________________________________________________________
dense_3 (Dense)                     (None, 10)                      1290        
================================================================================
Total params: 235,146
Trainable params: 235,146
Non-trainable params: 0
________________________________________________________________________________&lt;/code&gt;&lt;/pre&gt;
&lt;p&gt;Next, compile the model with appropriate loss function, optimizer, and metrics:&lt;/p&gt;
&lt;pre class="r"&gt;&lt;code&gt;model %&amp;gt;% compile(
…
