…
             kernel_initializer=initializer_truncated_normal(stddev = 0.02),\n                         name = 'output')\n\nmodel = keras_model(inputs = inputs,outputs = outputs)\n\nThis is how the model architecture looks like after adding a dense layer and padding input sequences.\n\n\nModel\n__________________________________________________________________________________________\nLayer (type)                 Output Shape        Param #    Connected to                  \n==========================================================================================\nInput-Token (InputLayer)     (None, 50)          0                                        \n__________________________________________________________________________________________\nInput-Segment (InputLayer)   (None, 50)          0                                        \n__________________________________________________________________________________________\nEmbedding-Token (TokenEmbedd [(None, 50, 768), ( 23440896   Input-Token[0][0]             \n__________________________________________________________________________________________\nEmbedding-Segment (Embedding (None, 50, 768)     1536       Input-Segment[0][0]           \n__________________________________________________________________________________________\nEmbedding-Token-Segment (Add (None, 50, 768)     0          Embedding-Token[0][0]         \n                                                            Embedding-Segment[0][0]       \n__________________________________________________________________________________________\nEmbedding-Position (Position (None, 50, 768)     38400      Embedding-Token-Segment[0][0] \n__________________________________________________________________________________________\nEmbedding-Dropout (Dropout)  (None, 50, 768)     0          Embedding-Position[0][0]      \n__________________________________________________________________________________________\nEmbedding-Norm (LayerNormali (None, 50, 768)     1536       Embedding-Dropout[0][0]       \n__________________________________________________________________________________________\nEncoder-1-MultiHeadSelfAtten (None, 50, 768)     2362368    Embedding-Norm[0][0]          \n__________________________________________________________________________________________\nEncoder-1-MultiHeadSelfAtten (None, 50, 768)     0          Encoder-1-MultiHeadSelfAttenti\n__________________________________________________________________________________________\nEncoder-1-MultiHeadSelfAtten (None, 50, 768)     0          Embedding-Norm[0][0]          \n                                                            Encoder-1-MultiHeadSelfAttenti\n__________________________________________________________________________________________\nEncoder-1-MultiHeadSelfAtten (None, 50, 768)     1536       Encoder-1-MultiHeadSelfAttenti\n__________________________________________________________________________________________\nEncoder-1-FeedForward (FeedF (None, 50, 768)     4722432    Encoder-1-MultiHeadSelfAttenti\n__________________________________________________________________________________________\nEncoder-1-FeedForward-Dropou (None, 50, 768)     0          Encoder-1-FeedForward[0][0]   \n__________________________________________________________________________________________\nEncoder-1-FeedForward-Add (A (None, 50, 768)     0          Encoder-1-MultiHeadSelfAttenti\n                                                            Encoder-1-FeedForward-Dropout[\n__________________________________________________________________________________________\nEncoder-1-FeedForward-Norm ( (None, 50, 768)     1536       Encoder-1-FeedForward-Add[0][0\n__________________________________________________________________________________________\nEncoder-2-MultiHeadSelfAtten (None, 50, 768)     2362368    Encoder-1-FeedForward-Norm[0][\n__________________________________________________________________________________________\nEncoder-2-MultiHeadSelfAtten (None, 50, 768)     0          Encoder-2-MultiHeadSelfAttenti\n__________________________________________________________________________________________\nEncoder-2-MultiHeadSelfAtten (None, 50, 768)     0          Encoder-1-FeedForward-Norm[0][\n                                                            Encoder-2-MultiHeadSelfAttenti\n__________________________________________________________________________________________\nEncoder-2-MultiHeadSelfAtten (None, 50, 768)     1536       Encoder-2-MultiHeadSelfAttenti\n__________________________________________________________________________________________\nEncoder-2-FeedForward (FeedF (None, 50, 768)     4722432    Encoder-2-MultiHeadSelfAttenti\n__________________________________________________________________________________________\nEncoder-2-FeedForward-Dropou (None, 50, 768)     0          Encoder-2-FeedForward[0][0]   \n__________________________________________________________________________________________\nEncoder-2-FeedForward-Add (A (None, 50, 768)     0          Encoder-2-MultiHeadSelfAttenti\n                                                            Encoder-2-FeedForward-Dropout[\n__________________________________________________________________________________________\nEncoder-2-FeedForward-Norm ( (None, 50, 768)     1536       Encoder-2-FeedForward-Add[0][0\n__________________________________________________________________________________________\nEncoder-3-MultiHeadSelfAtten (None, 50, 768)     2362368    Encoder-2-FeedForward-Norm[0][\n__________________________________________________________________________________________\nEncoder-3-MultiHeadSelfAtten (None, 50, 768)     0          Encoder-3-MultiHeadSelfAttenti\n__________________________________________________________________________________________\nEncoder-3-MultiHeadSelfAtten (None, 50, 768)     0          Encoder-2-FeedForward-Norm[0][\n                                                            Encoder-3-MultiHeadSelfAttenti\n__________________________________________________________________________________________\nEncoder-3-MultiHeadSelfAtten (None, 50, 768)     1536       Encoder-3-MultiHeadSelfAttenti\n__________________________________________________________________________________________\nEncoder-3-FeedForward (FeedF (None, 50, 768)     4722432    Encoder-3-MultiHeadSelfAttenti\n__________________________________________________________________________________________\nEncoder-3-FeedForward-Dropou (None, 50, 768)     0          Encoder-3-FeedForward[0][0]   \n__________________________________________________________________________________________\nEncoder-3-FeedForward-Add (A (None, 50, 768)     0          Encoder-3-MultiHeadSelfAttenti\n                                                            Encoder-3-FeedForward-Dropout[\n__________________________________________________________________________________________\nEncoder-3-FeedForward-Norm ( (None, 50, 768)     1536       Encoder-3-FeedForward-Add[0][0\n__________________________________________________________________________________________\nEncoder-4-MultiHeadSelfAtten (None, 50, 768)     2362368    Encoder-3-FeedForward-Norm[0][\n__________________________________________________________________________________________\nEncoder-4-MultiHeadSelfAtten (None, 50, 768)     0          Encoder-4-MultiHeadSelfAttenti\n__________________________________________________________________________________________\nEncoder-4-MultiHeadSelfAtten (None, 50, 768)     0          Encoder-3-FeedForward-Norm[0][\n                                                            Encoder-4-MultiHeadSelfAttenti\n__________________________________________________________________________________________\nEncoder-4-MultiHeadSelfAtten (None, 50, 768)     1536       Encoder-4-MultiHeadSelfAttenti\n__________________________________________________________________________________________\nEncoder-4-FeedForward (FeedF (None, 50, 768)     4722432    Encoder-4-MultiHeadSelfAttenti\n__________________________________________________________________________________________\nEncoder-4-FeedForward-Dropou (None, 50, 768)     0          Encoder-4-FeedForward[0][0]   \n__________________________________________________________________________________________\nEncoder-4-FeedForward-Add (A (None, 50, 768)     0          Encoder-4-MultiHeadSelfAttenti\n                                                            Encoder-4-FeedForward-Dropout[\n__________________________________________________________________________________________\nEncoder-4-FeedForward-Norm ( (None, 50, 768)     1536       Encoder-4-FeedForward-Add[0][0\n__________________________________________________________________________________________\nEncoder-5-MultiHeadSelfAtten (None, 50, 768)     2362368    Encoder-4-FeedForward-Norm[0][\n__________________________________________________________________________________________\nEncoder-5-MultiHeadSelfAtten (None, 50, 768)     0          Encoder-5-MultiHeadSelfAttenti\n__________________________________________________________________________________________\nEncoder-5-MultiHeadSelfAtten (None, 50, 768)     0          Encoder-4-FeedForward-Norm[0][\n                                                            Encoder-5-MultiHeadSelfAttenti\n__________________________________________________________________________________________\nEncoder-5-MultiHeadSelfAtten (None, 50, 768)     1536       Encoder-5-MultiHeadSelfAttenti\n__________________________________________________________________________________________\nEncoder-5-FeedForward (FeedF (None, 50, 768)     4722432    Encoder-5-MultiHeadSelfAttenti\n__________________________________________________________________________________________\nEncoder-5-FeedForward-Dropou (None, 50, 768)     0          Encoder-5-FeedForward[0][0]   \n__________________________________________________________________________________________\nEncoder-5-FeedForward-Add (A (None, 50, 768)     0          Encoder-5-MultiHeadSelfAttenti\n                                                            Encoder-5-FeedForward-Dropout[\n__________________________________________________________________________________________\nEncoder-5-FeedForward-Norm ( (None, 50, 768)     1536       Encoder-5-FeedForward-Add[0][0\n__________________________________________________________________________________________\nEncoder-6-MultiHeadSelfAtten (None, 50, 768)     2362368    Encoder-5-FeedForward-Norm[0][\n__________________________________________________________________________________________\nEncoder-6-MultiHeadSelfAtten (None, 50, 768)     0          Encoder-6-MultiHeadSelfAttenti\n__________________________________________________________________________________________\nEncoder-6-MultiHeadSelfAtten (None, 50, 768)     0          Encoder-5-FeedForward-Norm[0][\n                                                            Encoder-6-MultiHeadSelfAttenti\n__________________________________________________________________________________________\nEncoder-6-MultiHeadSelfAtten (None, 50, 768)     1536       Encoder-6-MultiHeadSelfAttenti\n__________________________________________________________________________________________\nEncoder-6-FeedForward (FeedF (None, 50, 768)     4722432    Encoder-6-MultiHeadSelfAttenti\n__________________________________________________________________________________________\nEncoder-6-FeedForward-Dropou (None, 50, 768)     0          Encoder-6-FeedForward[0][0]   \n__________________________________________________________________________________________\nEncoder-6-FeedForward-Add (A (None, 50, 768)     0          Encoder-6-MultiHeadSelfAttenti\n                                                            Encoder-6-FeedForward-Dropout[\n__________________________________________________________________________________________\nEncoder-6-FeedForward-Norm ( (None, 50, 768)     1536       Encoder-6-FeedForward-Add[0][0\n__________________________________________________________________________________________\nEncoder-7-MultiHeadSelfAtten (None, 50, 768)     2362368    Encoder-6-FeedForward-Norm[0][\n__________________________________________________________________________________________\nEncoder-7-MultiHeadSelfAtten (None, 50, 768)     0          Encoder-7-MultiHeadSelfAttenti\n__________________________________________________________________________________________\nEncoder-7-MultiHeadSelfAtten (None, 50, 768)     0          Encoder-6-FeedForward-Norm[0][\n                                                            Encoder-7-MultiHeadSelfAttenti\n__________________________________________________________________________________________\nEncoder-7-MultiHeadSelfAtten (None, 50, 768)     1536       Encoder-7-MultiHeadSelfAttenti\n__________________________________________________________________________________________\nEncoder-7-FeedForward (FeedF (None, 50, 768)     4722432    Encoder-7-MultiHeadSelfAttenti\n__________________________________________________________________________________________\nEncoder-7-FeedForward-Dropou (None, 50, 768)     0          Encoder-7-FeedForward[0][0]   \n__________________________________________________________________________________________\nEncoder-7-FeedForward-Add (A (None, 50, 768)     0          Encoder-7-MultiHeadSelfAttenti\n                                                            Encoder-7-FeedForward-Dropout[\n__________________________________________________________________________________________\nEncoder-7-FeedForward-Norm ( (None, 50, 768)     1536       Encoder-7-FeedForward-Add[0][0\n__________________________________________________________________________________________\nEncoder-8-MultiHeadSelfAtten (None, 50, 768)     2362368    Encoder-7-FeedForward-Norm[0][\n__________________________________________________________________________________________\nEncoder-8-MultiHeadSelfAtten (None, 50, 768)     0          Encoder-8-MultiHeadSelfAttenti\n__________________________________________________________________________________________\nEncoder-8-MultiHeadSelfAtten (None, 50, 768)     0          Encoder-7-FeedForward-Norm[0][\n                                                            Encoder-8-MultiHeadSelfAttenti\n__________________________________________________________________________________________\nEncoder-8-MultiHeadSelfAtten (None, 50, 768)     1536       Encoder-8-MultiHeadSelfAttenti\n__________________________________________________________________________________________\nEncoder-8-FeedForward (FeedF (None, 50, 768)     4722432    Encoder-8-MultiHeadSelfAttenti\n__________________________________________________________________________________________\nEncoder-8-FeedForward-Dropou (None, 50, 768)     0          Encoder-8-FeedForward[0][0]   \n__________________________________________________________________________________________\nEncoder-8-FeedForward-Add (A (None, 50, 768)     0          Encoder-8-MultiHeadSelfAttenti\n                                                            Encoder-8-FeedForward-Dropout[\n__________________________________________________________________________________________\nEncoder-8-FeedForward-Norm ( (None, 50, 768)     1536       Encoder-8-FeedForward-Add[0][0\n__________________________________________________________________________________________\nEncoder-9-MultiHeadSelfAtten (None, 50, 768)     2362368    Encoder-8-FeedForward-Norm[0][\n__________________________________________________________________________________________\nEncoder-9-MultiHeadSelfAtten (None, 50, 768)     0          Encoder-9-MultiHeadSelfAttenti\n__________________________________________________________________________________________\nEncoder-9-MultiHeadSelfAtten (None, 50, 768)     0          Encoder-8-FeedForward-Norm[0][\n                                                            Encoder-9-MultiHeadSelfAttenti\n__________________________________________________________________________________________\nEncoder-9-MultiHeadSelfAtten (None, 50, 768)     1536       Encoder-9-MultiHeadSelfAttenti\n__________________________________________________________________________________________\nEncoder-9-FeedForward (FeedF (None, 50, 768)     4722432    Encoder-9-MultiHeadSelfAttenti\n__________________________________________________________________________________________\nEncoder-9-FeedForward-Dropou (None, 50, 768)     0          Encoder-9-FeedForward[0][0]   \n__________________________________________________________________________________________\nEncoder-9-FeedForward-Add (A (None, 50, 768)     0          Encoder-9-MultiHeadSelfAttenti\n                                                            Encoder-9-FeedForward-Dropout[\n__________________________________________________________________________________________\nEncoder-9-FeedForward-Norm ( (None, 50, 768)     1536       Encoder-9-FeedForward-Add[0][0\n__________________________________________________________________________________________\nEncoder-10-MultiHeadSelfAtte (None, 50, 768)     2362368    Encoder-9-FeedForward-Norm[0][\n__________________________________________________________________________________________\nEncoder-10-MultiHeadSelfAtte (None, 50, 768)     0          Encoder-10-MultiHeadSelfAttent\n__________________________________________________________________________________________\nEncoder-10-MultiHeadSelfAtte (None, 50, 768)     0          Encoder-9-FeedForward-Norm[0][\n                                                            Encoder-10-MultiHeadSelfAttent\n__________________________________________________________________________________________\nEncoder-10-MultiHeadSelfAtte (None, 50, 768)     1536       Encoder-10-MultiHeadSelfAttent\n__________________________________________________________________________________________\nEncoder-10-FeedForward (Feed (None, 50, 768)     4722432    Encoder-10-MultiHeadSelfAttent\n__________________________________________________________________________________________\nEncoder-10-FeedForward-Dropo (None, 50, 768)     0          Encoder-10-FeedForward[0][0]  \n__________________________________________________________________________________________\nEncoder-10-FeedForward-Add ( (None, 50, 768)     0          Encoder-10-MultiHeadSelfAttent\n                                                            Encoder-10-FeedForward-Dropout\n__________________________________________________________________________________________\nEncoder-10-FeedForward-Norm  (None, 50, 768)     1536       Encoder-10-FeedForward-Add[0][\n__________________________________________________________________________________________\nEncoder-11-MultiHeadSelfAtte (None, 50, 768)     2362368    Encoder-10-FeedForward-Norm[0]\n__________________________________________________________________________________________\nEncoder-11-MultiHeadSelfAtte (None, 50, 768)     0          Encoder-11-MultiHeadSelfAttent\n__________________________________________________________________________________________\nEncoder-11-MultiHeadSelfAtte (None, 50, 768)     0          Encoder-10-FeedForward-Norm[0]\n                                                            Encoder-11-MultiHeadSelfAttent\n__________________________________________________________________________________________\nEncoder-11-MultiHeadSelfAtte (None, 50, 768)     1536       Encoder-11-MultiHeadSelfAttent\n__________________________________________________________________________________________\nEncoder-11-FeedForward (Feed (None, 50, 768)     4722432    Encoder-11-MultiHeadSelfAttent\n__________________________________________________________________________________________\nEncoder-11-FeedForward-Dropo (None, 50, 768)     0          Encoder-11-FeedForward[0][0]  \n__________________________________________________________________________________________\nEncoder-11-FeedForward-Add ( (None, 50, 768)     0          Encoder-11-MultiHeadSelfAttent\n                                                            Encoder-11-FeedForward-Dropout\n__________________________________________________________________________________________\nEncoder-11-FeedForward-Norm  (None, 50, 768)     1536       Encoder-11-FeedForward-Add[0][\n__________________________________________________________________________________________\nEncoder-12-MultiHeadSelfAtte (None, 50, 768)     2362368    Encoder-11-FeedForward-Norm[0]\n__________________________________________________________________________________________\nEncoder-12-MultiHeadSelfAtte (None, 50, 768)     0          Encoder-12-MultiHeadSelfAttent\n__________________________________________________________________________________________\nEncoder-12-MultiHeadSelfAtte (None, 50, 768)     0          Encoder-11-FeedForward-Norm[0]\n                                                            Encoder-12-MultiHeadSelfAttent\n__________________________________________________________________________________________\nEncoder-12-MultiHeadSelfAtte (None, 50, 768)     1536       Encoder-12-MultiHeadSelfAttent\n__________________________________________________________________________________________\nEncoder-12-FeedForward (Feed (None, 50, 768)     4722432    Encoder-12-MultiHeadSelfAttent\n__________________________________________________________________________________________\nEncoder-12-FeedForward-Dropo (None, 50, 768)     0          Encoder-12-FeedForward[0][0]  \n__________________________________________________________________________________________\nEncoder-12-FeedForward-Add ( (None, 50, 768)     0          Encoder-12-MultiHeadSelfAttent\n                                                            Encoder-12-FeedForward-Dropout\n__________________________________________________________________________________________\nEncoder-12-FeedForward-Norm  (None, 50, 768)     1536       Encoder-12-FeedForward-Add[0][\n__________________________________________________________________________________________\nExtract (Extract)            (None, 768)         0          Encoder-12-FeedForward-Norm[0]\n__________________________________________________________________________________________\nNSP-Dense (Dense)            (None, 768)         590592     Extract[0][0]                 \n__________________________________________________________________________________________\noutput (Dense)               (None, 1)           769        NSP-Dense[0][0]               \n==========================================================================================\nTotal params: 109,128,193\nTrainable params: 109,128,193\nNon-trainable params: 0\n__________________________________________________________________________________________\n\nCompile model and begin training\nAus usual with Keras, before training a model, we need to
…
 (InputLayer)           [(None, 128, 128, 3 0                                          \n______________________________________________________________________________________________\nconv2d (Conv2D)                (None, 128, 128, 64 1792       input_1[0][0]                   \n______________________________________________________________________________________________\nconv2d_1 (Conv2D)              (None, 128, 128, 64 36928      conv2d[0][0]                    \n______________________________________________________________________________________________\nmax_pooling2d (MaxPooling2D)   (None, 64, 64, 64)  0          conv2d_1[0][0]                  \n______________________________________________________________________________________________\nconv2d_2 (Conv2D)              (None, 64, 64, 128) 73856      max_pooling2d[0][0]             \n______________________________________________________________________________________________\nconv2d_3 (Conv2D)              (None, 64, 64, 128) 147584     conv2d_2[0][0]                  \n______________________________________________________________________________________________\nmax_pooling2d_1 (MaxPooling2D) (None, 32, 32, 128) 0          conv2d_3[0][0]                  \n______________________________________________________________________________________________\nconv2d_4 (Conv2D)              (None, 32, 32, 256) 295168     max_pooling2d_1[0][0]           \n______________________________________________________________________________________________\nconv2d_5 (Conv2D)              (None, 32, 32, 256) 590080     conv2d_4[0][0]                  \n______________________________________________________________________________________________\nmax_pooling2d_2 (MaxPooling2D) (None, 16, 16, 256) 0          conv2d_5[0][0]                  \n______________________________________________________________________________________________\nconv2d_6 (Conv2D)              (None, 16, 16, 512) 1180160    max_pooling2d_2[0][0]           \n______________________________________________________________________________________________\nconv2d_7 (Conv2D)              (None, 16, 16, 512) 2359808    conv2d_6[0][0]                  \n______________________________________________________________________________________________\nmax_pooling2d_3 (MaxPooling2D) (None, 8, 8, 512)   0          conv2d_7[0][0]                  \n______________________________________________________________________________________________\ndropout (Dropout)              (None, 8, 8, 512)   0          max_pooling2d_3[0][0]           \n______________________________________________________________________________________________\nconv2d_8 (Conv2D)              (None, 8, 8, 1024)  4719616    dropout[0][0]                   \n______________________________________________________________________________________________\nconv2d_9 (Conv2D)              (None, 8, 8, 1024)  9438208    conv2d_8[0][0]                  \n______________________________________________________________________________________________\nconv2d_transpose (Conv2DTransp (None, 16, 16, 512) 2097664    conv2d_9[0][0]                  \n______________________________________________________________________________________________\nconcatenate (Concatenate)      (None, 16, 16, 1024 0          conv2d_7[0][0]                  \n                                                              conv2d_transpose[0][0]          \n______________________________________________________________________________________________\nconv2d_10 (Conv2D)             (None, 16, 16, 512) 4719104    concatenate[0][0]               \n______________________________________________________________________________________________\nconv2d_11 (Conv2D)             (None, 16, 16, 512) 2359808    conv2d_10[0][0]                 \n______________________________________________________________________________________________\nconv2d_transpose_1 (Conv2DTran (None, 32, 32, 256) 524544     conv2d_11[0][0]                 \n______________________________________________________________________________________________\nconcatenate_1 (Concatenate)    (None, 32, 32, 512) 0          conv2d_5[0][0]                  \n                                                              conv2d_transpose_1[0][0]        \n______________________________________________________________________________________________\nconv2d_12 (Conv2D)             (None, 32, 32, 256) 1179904    concatenate_1[0][0]             \n______________________________________________________________________________________________\nconv2d_13 (Conv2D)             (None, 32, 32, 256) 590080     conv2d_12[0][0]                 \n______________________________________________________________________________________________\nconv2d_transpose_2 (Conv2DTran (None, 64, 64, 128) 131200     conv2d_13[0][0]                 \n______________________________________________________________________________________________\nconcatenate_2 (Concatenate)    (None, 64, 64, 256) 0          conv2d_3[0][0]                  \n                                                              conv2d_transpose_2[0][0]        \n______________________________________________________________________________________________\nconv2d_14 (Conv2D)             (None, 64, 64, 128) 295040     concatenate_2[0][0]             \n______________________________________________________________________________________________\nconv2d_15 (Conv2D)             (None, 64, 64, 128) 147584     conv2d_14[0][0]                 \n______________________________________________________________________________________________\nconv2d_transpose_3 (Conv2DTran (None, 128, 128, 64 32832      conv2d_15[0][0]                 \n______________________________________________________________________________________________\nconcatenate_3 (Concatenate)    (None, 128, 128, 12 0          conv2d_1[0]
…
er_global_average_pooling_1d() %>% \n  layer_batch_normalization() %>%\n  layer_dropout(0.2) %>% \n  layer_dense(\n    dense_size,\n    activation = \"relu\"\n  ) %>% \n  layer_batch_normalization() %>%\n  layer_dropout(0.25) %>% \n  layer_dense(\n    num_classes, \n    activation = \"softmax\",\n    name = \"dense_output\"\n  ) \n\nsummary(model)\n\n______________________________________________________________________\nLayer (type)                   Output Shape                Param #    \n======================================================================\nconv1d_1 (Conv1D)              (None, 327, 24)             1176       \n______________________________________________________________________\nbatch_normalization_1 (BatchNo (None, 327, 24)             96         \n______________________________________________________________________\nspatial_dropout1d_1 (SpatialDr (None, 327, 24)             0          \n______________________________________________________________________\nconv1d_2 (Conv1D)              (None, 320, 12)             2316       \n______________________________________________________________________\nglobal_average_pooling1d_1 (Gl (None, 12)                  0          \n______________________________________________________________________\nbatch_normalization_2 (BatchNo (None, 12)                  48         \n______________________________________________________________________\ndropout_1 (Dropout)            (None, 12)                  0          \n______________________________________________________________________\ndense_1 (Dense)                (None, 48)                  624        \n______________________________________________________________________\nbatch_normalization_3 (BatchNo (None, 48)                  192        \n______________________________________________________________________\ndropout_2 (Dropout)            (None, 48)                  0          \n______________________________________________________________________\ndense_output (Dense)           (None, 6)                   294        \n======================================================================\nTotal params: 4,746\nTrainable params: 4,578\nNon-trainable params: 168\n______________________________________________________________________\n\nTraining\nNow we can train the model using our test and training data. Note that we use callback_model_checkpoint() to ensure that we save only the best variation of the m
…
talk about image models, we’ll be using one of the pre-trained ImageNet models that is available from keras itself:\n\n\nlibrary(keras)\nlibrary(lime)\nlibrary(magick)\n\nmodel <- application_vgg16(\n  weights = \"imagenet\",\n  include_top = TRUE\n)\nmodel\n\n\nModel\n______________________________________________________________________________________________\nLayer (type)                              Output Shape                         Param #        \n==============================================================================================\ninput_1 (InputLayer)                      (None, 224, 224, 3)                  0              \n______________________________________________________________________________________________\nblock1_conv1 (Conv2D)                     (None, 224, 224, 64)                 1792           \n______________________________________________________________________________________________\nblock1_conv2 (Conv2D)                     (None, 224, 224, 64)                 36928          \n______________________________________________________________________________________________\nblock1_pool (MaxPooling2D)                (None, 112, 112, 64)                 0              \n______________________________________________________________________________________________\nblock2_conv1 (Conv2D)                     (None, 112, 112, 128)                73856          \n______________________________________________________________________________________________\nblock2_conv2 (Conv2D)                     (None, 112, 112, 128)                147584         \n______________________________________________________________________________________________\nblock2_pool (MaxPooling2D)                (None, 56, 56, 128)                  0              \n______________________________________________________________________________________________\nblock3_conv1 (Conv2D)                     (None, 56, 56, 256)                  295168         \n______________________________________________________________________________________________\nblock3_conv2 (Conv2D)                     (None, 56, 56, 256)                  590080         \n______________________________________________________________________________________________\nblock3_conv3 (Conv2D)                     (None, 56, 56, 256)                  590080         \n______________________________________________________________________________________________\nblock3_pool (MaxPooling2D)                (None, 28, 28, 256)                  0              \n______________________________________________________________________________________________\nblock4_conv1 (Conv2D)                     (None, 28, 28, 512)                  1180160        \n______________________________________________________________________________________________\nblock4_conv2 (Conv2D)                     (None, 28, 28, 512)                  2359808        \n______________________________________________________________________________________________\nblock4_conv3 (Conv2D)                     (None, 28, 28, 512)                  2359808        \n______________________________________________________________________________________________\nblock4_pool (MaxPooling2D)                (None, 14, 14, 512)                  0              \n______________________________________________________________________________________________\nblock5_conv1 (Conv2D)                     (None, 14, 14, 512)                  2359808        \n______________________________________________________________________________________________\nblock5_conv2 (Conv2D)                     (None, 14, 14, 512)                  2359808        \n______________________________________________________________________________________________\nblock5_conv3 (Conv2D)                     (None, 14, 14, 512)                  2359808        \n______________________________________________________________________________________________\nblock5_pool (MaxPooling2D)                (None, 7, 7, 512)                    0              \n______________________________________________________________________________________________\nflatten (Flatten)                         (None, 25088)                        0              \n______________________________________________________________________________________________\nfc1 (Dense)                               (None, 4096)                         102764544      \n______________________________________________________________________________________________\nfc2 (Dense)                               (None, 4096)                         16781312       \n______________________________________________________________________________________________\npredictions (Dense)                       (None, 1000)                         4097000        \n==============================================================================================\nTotal params: 138,357,544\nTrainable params: 138,357,544\nNon-trainable params: 0\n______________________________________________________________________________________________\n\nThe vgg16 model is an image classification model that has been build as part of the ImageNet competition where th
…
lps to prevent overfitting.\nThe input_shape argument to the first layer specifies the shape of the input data (a length 180 numeric vector representing a peptide ‘image’). The final layer outputs a length 3 numeric vector (probabilities for each class SB, WB and NB) using a softmax activation function.\nWe can use the summary() function to print the details of the model:\n\n\nsummary(model)\n\n\nLayer (type)                        Output Shape                    Param #     \n================================================================================\ndense_1 (Dense)                     (None, 180)                     32580       \n________________________________________________________________________________\ndropout_1 (Dropout)                 (None, 180)                     0           \n________________________________________________________________________________\ndense_2 (Dense)                     (None, 90)                      16290       \n________________________________________________________________________________\ndropout_2 (Dropout)                 (None, 90)                      0           \n________________________________________________________________________________\ndense_3 (Dense)                     (None, 3)                       273         \n================================================================================\nTotal params: 49,143\nTrainable params: 49,143\nNon-trainable params: 0\n________________________________________________________________________________\nNext, we compile the model with appropriate loss function, optimizer, and metrics:\n\n\nmodel %>% compile(\n  loss      = 'categorical_crossentropy',\n 
…
  = 1, \n    kernel_initializer = \"uniform\", \n    activation         = \"sigmoid\") %>% \n  \n  # Compile ANN\n  compile(\n    optimizer = 'adam',\n    loss      = 'binary_crossentropy',\n    metrics   = c('accuracy')\n  )\n\nkeras_model\n\n\nModel\n___________________________________________________________________________________________________\nLayer (type)                                Output Shape                            Param #        \n===================================================================================================\ndense_1 (Dense)                             (None, 16)                              576            \n___________________________________________________________________________________________________\ndropout_1 (Dropout)                         (None, 16)                              0              \n___________________________________________________________________________________________________\ndense_2 (Dense)                             (None, 16)                              272            \n___________________________________________________________________________________________________\ndropout_2 (Dropout)                         (None, 16)                              0              \n___________________________________________________________________________________________________\ndense_3 (Dense)                             (None, 1)                               17             \n===================================================================================================\nTotal params: 865\nTrainable params: 865\nNon-trainable params: 0\n___________________________________________________________________________________________________\nWe use the fit() function to run the ANN on our training data. The object is our model, and x and y are our training
…
use the Adam optimizer.\n\n\nmodel <- keras_model(list(input1, input2), output)\nmodel %>% compile(\n  optimizer = \"adam\", \n  metrics = list(acc = metric_binary_accuracy), \n  loss = \"binary_crossentropy\"\n)\n\nWe can then take a look at out model with the summary function.\n\n\nsummary(model)\n\n\n_______________________________________________________________________________________\nLayer (type)                Output Shape       Param #    Connected to                 \n=======================================================================================\ninput_question1 (InputLayer (None, 20)         0                                       \n_______________________________________________________________________________________\ninput_question2 (InputLayer (None, 20)         0                                       \n_______________________________________________________________________________________\nembedding_1 (Embedding)     (None, 20, 128)    6400256    input_question1[0][0]        \n                                                          input_question2[0][0]        \n_______________________________________________________________________________________\nlstm_1 (LSTM)               (None, 128)        131584     embedding_1[0][0]            \n                                                          embedding_1[1][0]            \n_______________________________________________________________________________________\ndot_1 (Dot)                 (None, 1)          0          lstm_1[0][0]                 \n                                                          lstm_1[1][0]                 \n_______________________________________________________________________________________\ndense_1 (Dense)             (None, 1)          2          dot_1[0][0]                  \n=======================================================================================\nTotal params: 6,531,842\nTrainable params: 6,531,842\nNon-trainable params: 0\n_______________________________________________________________________________________\nModel fitting\nNow we will fit and tune our model. However before proceeding let’s take a sample for v
…
 = \"sigmoid\")\n\nNow we will create the model and compile it.\n\n\nmodel <- keras_model(list(input_target, input_context), output)\nmodel %>% compile(loss = \"binary_crossentropy\", optimizer = \"adam\")\n\nWe can see the full definition of the model by calling summary:\n\n\nsummary(model)\n\n\n_________________________________________________________________________________________\nLayer (type)                 Output Shape       Param #    Connected to                  \n=========================================================================================\ninput_1 (InputLayer)         (None, 1)          0                                        \n_________________________________________________________________________________________\ninput_2 (InputLayer)         (None, 1)          0                                        \n_________________________________________________________________________________________\nembedding (Embedding)        (None, 1, 128)     2560128    input_1[0][0]                 \n                                                           input_2[0][0]                 \n_________________________________________________________________________________________\nflatten_1 (Flatten)          (None, 128)        0          embedding[0][0]               \n_________________________________________________________________________________________\nflatten_2 (Flatten)          (None, 128)        0          embedding[1][0]               \n_________________________________________________________________________________________\ndot_1 (Dot)                  (None, 1)          0          flatten_1[0][0]               \n                                                           flatten_2[0][0]               \n_________________________________________________________________________________________\ndense_1 (Dense)              (None, 1)          2          dot_1[0][0]                   \n=========================================================================================\nTotal params: 2,560,130\nTrainable params: 2,560,130\nNon-trainable params: 0\n_________________________________________________________________________________________\nModel Training\nWe will fit the model using the fit_generator() function We need to specify the n
…
ssifier (with only two classes: cat and dog), you don’t need to include it.\ninput_shape is the shape of the image tensors that you’ll feed to the network. This argument is purely optional: if you don’t pass it, the network will be able to process inputs of any size.\nHere’s the detail of the architecture of the VGG16 convolutional base. It’s similar to the simple convnets you’re already familiar with:\n\n\nsummary(conv_base)\n\n\nLayer (type)                     Output Shape          Param #  \n================================================================\ninput_1 (InputLayer)             (None, 150, 150, 3)   0       \n________________________________________________________________\nblock1_conv1 (Convolution2D)     (None, 150, 150, 64)  1792     \n________________________________________________________________\nblock1_conv2 (Convolution2D)     (None, 150, 150, 64)  36928    \n________________________________________________________________\nblock1_pool (MaxPooling2D)       (None, 75, 75, 64)    0        \n________________________________________________________________\nblock2_conv1 (Convolution2D)     (None, 75, 75, 128)   73856    \n________________________________________________________________\nblock2_conv2 (Convolution2D)     (None, 75, 75, 128)   147584   \n________________________________________________________________\nblock2_pool (MaxPooling2D)       (None, 37, 37, 128)   0        \n________________________________________________________________\nblock3_conv1 (Convolution2D)     (None, 37, 37, 256)   295168   \n________________________________________________________________\nblock3_conv2 (Convolution2D)     (None, 37, 37, 256)   590080   \n________________________________________________________________\nblock3_conv3 (Convolution2D)     (None, 37, 37, 256)   590080   \n________________________________________________________________\nblock3_pool (MaxPooling2D)       (None, 18, 18, 256)   0        \n________________________________________________________________\nblock4_conv1 (Convolution2D)     (None, 18, 18, 512)   1180160  \n________________________________________________________________\nblock4_conv2 (Convolution2D)     (None, 18, 18, 512)   2359808  \n________________________________________________________________\nblock4_conv3 (Convolution2D)     (None, 18, 18, 512)   2359808  \n________________________________________________________________\nblock4_pool (MaxPooling2D)       (None, 9, 9, 512)     0        \n________________________________________________________________\nblock5_conv1 (Convolution2D)     (None, 9, 9, 512)     2359808  \n________________________________________________________________\nblock5_conv2 (Convolution2D)     (None, 9, 9, 512)     2359808  \n________________________________________________________________\nblock5_conv3 (Convolution2D)     (None, 9, 9, 512)     2359808  \n________________________________________________________________\nblock5_pool (MaxPooling2D)       (None, 4, 4, 512)     0        \n================================================================\nTotal params: 14,714,688\nTrainable params: 14,714,688\nNon-trainable params: 0\nThe final feature map has shape (4, 4, 512). That’s the feature on top of which you’ll stick a densely connected classifier.\nAt this point, there are two ways you could proceed:\nRunning the convolutional base over your dataset, recording its
…
layer specifies the shape of the input data (a length 784 numeric vector representing a grayscale image). The final layer outputs a length 10 numeric vector (probabilities for each digit) using a softmax activation function.\nUse the summary() function to print the details of the model:\n\n\nsummary(model)\n\nModel\n________________________________________________________________________________\nLayer (type)                        Output Shape                    Param #     \n================================================================================\ndense_1 (Dense)                     (None, 256)                     200960      \n________________________________________________________________________________\ndropout_1 (Dropout)                 (None, 256)                     0           \n________________________________________________________________________________\ndense_2 (Dense)                     (None, 128)                     32896       \n________________________________________________________________________________\ndropout_2 (Dropout)                 (None, 128)                     0           \n________________________________________________________________________________\ndense_3 (Dense)                     (None, 10)                      1290        \n================================================================================\nTotal params: 235,146\nTrainable params: 235,146\nNon-trainable params: 0\n________________________________________________________________________________\nNext, compile the model with appropriate loss function, optimizer, and metrics:\n\n\nmodel %>% compile(\n  loss = \"categorical_crossentropy\",\n  opti
…
