…
* `include_top` refers to including (or not) the densely connected classifier on top of the network. By default, this densely connected classifier corresponds to the 1,000 classes from ImageNet. Because you intend to use your own densely connected classifier (with only two classes: `cat` and `dog`), you don't need to include it.
* `input_shape` is the shape of the image tensors that you'll feed to the network. This argument is purely optional: if you don't pass it, the network will be able to process inputs of any size.

Here's the detail of the architecture of the VGG16 convolutional base. It's similar to the simple convnets you're already familiar with:

```{r}
summary(conv_base)
```
```
Layer (type)                     Output Shape          Param #  
================================================================
input_1 (InputLayer)             (None, 150, 150, 3)   0       
________________________________________________________________
block1_conv1 (Convolution2D)     (None, 150, 150, 64)  1792     
________________________________________________________________
block1_conv2 (Convolution2D)     (None, 150, 150, 64)  36928    
________________________________________________________________
block1_pool (MaxPooling2D)       (None, 75, 75, 64)    0        
________________________________________________________________
block2_conv1 (Convolution2D)     (None, 75, 75, 128)   73856    
________________________________________________________________
block2_conv2 (Convolution2D)     (None, 75, 75, 128)   147584   
________________________________________________________________
block2_pool (MaxPooling2D)       (None, 37, 37, 128)   0        
________________________________________________________________
block3_conv1 (Convolution2D)     (None, 37, 37, 256)   295168   
________________________________________________________________
block3_conv2 (Convolution2D)     (None, 37, 37, 256)   590080   
________________________________________________________________
block3_conv3 (Convolution2D)     (None, 37, 37, 256)   590080   
________________________________________________________________
block3_pool (MaxPooling2D)       (None, 18, 18, 256)   0        
________________________________________________________________
block4_conv1 (Convolution2D)     (None, 18, 18, 512)   1180160  
________________________________________________________________
block4_conv2 (Convolution2D)     (None, 18, 18, 512)   2359808  
________________________________________________________________
block4_conv3 (Convolution2D)     (None, 18, 18, 512)   2359808  
________________________________________________________________
block4_pool (MaxPooling2D)       (None, 9, 9, 512)     0        
________________________________________________________________
block5_conv1 (Convolution2D)     (None, 9, 9, 512)     2359808  
________________________________________________________________
block5_conv2 (Convolution2D)     (None, 9, 9, 512)     2359808  
________________________________________________________________
block5_conv3 (Convolution2D)     (None, 9, 9, 512)     2359808  
________________________________________________________________
block5_pool (MaxPooling2D)       (None, 4, 4, 512)     0        
================================================================
Total params: 14,714,688
Trainable params: 14,714,688
Non-trainable params: 0
```

The final feature map has shape `(4, 4, 512)`. That's the feature on top of which you'll stick a densely connected classifier.

At this point, there are two ways you could proceed: 

* Running the convolutional base over your dataset, recordin
…
