…
Because we're soon going to talk about image models, we'll be using one of the
pre-trained ImageNet models that is available from keras itself:

```{r, message = FALSE}
library(keras)
library(lime)
library(magick)

model <- application_vgg16(
  weights = "imagenet",
  include_top = TRUE
)
model
```
```
Model
______________________________________________________________________________________________
Layer (type)                              Output Shape                         Param #        
==============================================================================================
input_1 (InputLayer)                      (None, 224, 224, 3)                  0              
______________________________________________________________________________________________
block1_conv1 (Conv2D)                     (None, 224, 224, 64)                 1792           
______________________________________________________________________________________________
block1_conv2 (Conv2D)                     (None, 224, 224, 64)                 36928          
______________________________________________________________________________________________
block1_pool (MaxPooling2D)                (None, 112, 112, 64)                 0              
______________________________________________________________________________________________
block2_conv1 (Conv2D)                     (None, 112, 112, 128)                73856          
______________________________________________________________________________________________
block2_conv2 (Conv2D)                     (None, 112, 112, 128)                147584         
______________________________________________________________________________________________
block2_pool (MaxPooling2D)                (None, 56, 56, 128)                  0              
______________________________________________________________________________________________
block3_conv1 (Conv2D)                     (None, 56, 56, 256)                  295168         
______________________________________________________________________________________________
block3_conv2 (Conv2D)                     (None, 56, 56, 256)                  590080         
______________________________________________________________________________________________
block3_conv3 (Conv2D)                     (None, 56, 56, 256)                  590080         
______________________________________________________________________________________________
block3_pool (MaxPooling2D)                (None, 28, 28, 256)                  0              
______________________________________________________________________________________________
block4_conv1 (Conv2D)                     (None, 28, 28, 512)                  1180160        
______________________________________________________________________________________________
block4_conv2 (Conv2D)                     (None, 28, 28, 512)                  2359808        
______________________________________________________________________________________________
block4_conv3 (Conv2D)                     (None, 28, 28, 512)                  2359808        
______________________________________________________________________________________________
block4_pool (MaxPooling2D)                (None, 14, 14, 512)                  0              
______________________________________________________________________________________________
block5_conv1 (Conv2D)                     (None, 14, 14, 512)                  2359808        
______________________________________________________________________________________________
block5_conv2 (Conv2D)                     (None, 14, 14, 512)                  2359808        
______________________________________________________________________________________________
block5_conv3 (Conv2D)                     (None, 14, 14, 512)                  2359808        
______________________________________________________________________________________________
block5_pool (MaxPooling2D)                (None, 7, 7, 512)                    0              
______________________________________________________________________________________________
flatten (Flatten)                         (None, 25088)                        0              
______________________________________________________________________________________________
fc1 (Dense)                               (None, 4096)                         102764544      
______________________________________________________________________________________________
fc2 (Dense)                               (None, 4096)                         16781312       
______________________________________________________________________________________________
predictions (Dense)                       (None, 1000)                         4097000        
==============================================================================================
Total params: 138,357,544
Trainable params: 138,357,544
Non-trainable params: 0
______________________________________________________________________________________________

```

The vgg16 model is an image classification model that has been build as part of
the ImageNet competition where the goal is to classify pictures into 1000 
…
