…
                         kernel_initializer=initializer_truncated_normal(stddev = 0.02),
                         name = 'output')

model = keras_model(inputs = inputs,outputs = outputs)
```

This is how the model architecture looks like after adding a dense layer and padding input sequences.

```{r eval=F}
Model
__________________________________________________________________________________________
Layer (type)                 Output Shape        Param #    Connected to                  
==========================================================================================
Input-Token (InputLayer)     (None, 50)          0                                        
__________________________________________________________________________________________
Input-Segment (InputLayer)   (None, 50)          0                                        
__________________________________________________________________________________________
Embedding-Token (TokenEmbedd [(None, 50, 768), ( 23440896   Input-Token[0][0]             
__________________________________________________________________________________________
Embedding-Segment (Embedding (None, 50, 768)     1536       Input-Segment[0][0]           
__________________________________________________________________________________________
Embedding-Token-Segment (Add (None, 50, 768)     0          Embedding-Token[0][0]         
                                                            Embedding-Segment[0][0]       
__________________________________________________________________________________________
Embedding-Position (Position (None, 50, 768)     38400      Embedding-Token-Segment[0][0] 
__________________________________________________________________________________________
Embedding-Dropout (Dropout)  (None, 50, 768)     0          Embedding-Position[0][0]      
__________________________________________________________________________________________
Embedding-Norm (LayerNormali (None, 50, 768)     1536       Embedding-Dropout[0][0]       
__________________________________________________________________________________________
Encoder-1-MultiHeadSelfAtten (None, 50, 768)     2362368    Embedding-Norm[0][0]          
__________________________________________________________________________________________
Encoder-1-MultiHeadSelfAtten (None, 50, 768)     0          Encoder-1-MultiHeadSelfAttenti
__________________________________________________________________________________________
Encoder-1-MultiHeadSelfAtten (None, 50, 768)     0          Embedding-Norm[0][0]          
                                                            Encoder-1-MultiHeadSelfAttenti
__________________________________________________________________________________________
Encoder-1-MultiHeadSelfAtten (None, 50, 768)     1536       Encoder-1-MultiHeadSelfAttenti
__________________________________________________________________________________________
Encoder-1-FeedForward (FeedF (None, 50, 768)     4722432    Encoder-1-MultiHeadSelfAttenti
__________________________________________________________________________________________
Encoder-1-FeedForward-Dropou (None, 50, 768)     0          Encoder-1-FeedForward[0][0]   
__________________________________________________________________________________________
Encoder-1-FeedForward-Add (A (None, 50, 768)     0          Encoder-1-MultiHeadSelfAttenti
                                                            Encoder-1-FeedForward-Dropout[
__________________________________________________________________________________________
Encoder-1-FeedForward-Norm ( (None, 50, 768)     1536       Encoder-1-FeedForward-Add[0][0
__________________________________________________________________________________________
Encoder-2-MultiHeadSelfAtten (None, 50, 768)     2362368    Encoder-1-FeedForward-Norm[0][
__________________________________________________________________________________________
Encoder-2-MultiHeadSelfAtten (None, 50, 768)     0          Encoder-2-MultiHeadSelfAttenti
__________________________________________________________________________________________
Encoder-2-MultiHeadSelfAtten (None, 50, 768)     0          Encoder-1-FeedForward-Norm[0][
                                                            Encoder-2-MultiHeadSelfAttenti
__________________________________________________________________________________________
Encoder-2-MultiHeadSelfAtten (None, 50, 768)     1536       Encoder-2-MultiHeadSelfAttenti
__________________________________________________________________________________________
Encoder-2-FeedForward (FeedF (None, 50, 768)     4722432    Encoder-2-MultiHeadSelfAttenti
__________________________________________________________________________________________
Encoder-2-FeedForward-Dropou (None, 50, 768)     0          Encoder-2-FeedForward[0][0]   
__________________________________________________________________________________________
Encoder-2-FeedForward-Add (A (None, 50, 768)     0          Encoder-2-MultiHeadSelfAttenti
                                                            Encoder-2-FeedForward-Dropout[
__________________________________________________________________________________________
Encoder-2-FeedForward-Norm ( (None, 50, 768)     1536       Encoder-2-FeedForward-Add[0][0
__________________________________________________________________________________________
Encoder-3-MultiHeadSelfAtten (None, 50, 768)     2362368    Encoder-2-FeedForward-Norm[0][
__________________________________________________________________________________________
Encoder-3-MultiHeadSelfAtten (None, 50, 768)     0          Encoder-3-MultiHeadSelfAttenti
__________________________________________________________________________________________
Encoder-3-MultiHeadSelfAtten (None, 50, 768)     0          Encoder-2-FeedForward-Norm[0][
                                                            Encoder-3-MultiHeadSelfAttenti
__________________________________________________________________________________________
Encoder-3-MultiHeadSelfAtten (None, 50, 768)     1536       Encoder-3-MultiHeadSelfAttenti
__________________________________________________________________________________________
Encoder-3-FeedForward (FeedF (None, 50, 768)     4722432    Encoder-3-MultiHeadSelfAttenti
__________________________________________________________________________________________
Encoder-3-FeedForward-Dropou (None, 50, 768)     0          Encoder-3-FeedForward[0][0]   
__________________________________________________________________________________________
Encoder-3-FeedForward-Add (A (None, 50, 768)     0          Encoder-3-MultiHeadSelfAttenti
                                                            Encoder-3-FeedForward-Dropout[
__________________________________________________________________________________________
Encoder-3-FeedForward-Norm ( (None, 50, 768)     1536       Encoder-3-FeedForward-Add[0][0
__________________________________________________________________________________________
Encoder-4-MultiHeadSelfAtten (None, 50, 768)     2362368    Encoder-3-FeedForward-Norm[0][
__________________________________________________________________________________________
Encoder-4-MultiHeadSelfAtten (None, 50, 768)     0          Encoder-4-MultiHeadSelfAttenti
__________________________________________________________________________________________
Encoder-4-MultiHeadSelfAtten (None, 50, 768)     0          Encoder-3-FeedForward-Norm[0][
                                                            Encoder-4-MultiHeadSelfAttenti
__________________________________________________________________________________________
Encoder-4-MultiHeadSelfAtten (None, 50, 768)     1536       Encoder-4-MultiHeadSelfAttenti
__________________________________________________________________________________________
Encoder-4-FeedForward (FeedF (None, 50, 768)     4722432    Encoder-4-MultiHeadSelfAttenti
__________________________________________________________________________________________
Encoder-4-FeedForward-Dropou (None, 50, 768)     0          Encoder-4-FeedForward[0][0]   
__________________________________________________________________________________________
Encoder-4-FeedForward-Add (A (None, 50, 768)     0          Encoder-4-MultiHeadSelfAttenti
                                                            Encoder-4-FeedForward-Dropout[
__________________________________________________________________________________________
Encoder-4-FeedForward-Norm ( (None, 50, 768)     1536       Encoder-4-FeedForward-Add[0][0
__________________________________________________________________________________________
Encoder-5-MultiHeadSelfAtten (None, 50, 768)     2362368    Encoder-4-FeedForward-Norm[0][
__________________________________________________________________________________________
Encoder-5-MultiHeadSelfAtten (None, 50, 768)     0          Encoder-5-MultiHeadSelfAttenti
__________________________________________________________________________________________
Encoder-5-MultiHeadSelfAtten (None, 50, 768)     0          Encoder-4-FeedForward-Norm[0][
                                                            Encoder-5-MultiHeadSelfAttenti
__________________________________________________________________________________________
Encoder-5-MultiHeadSelfAtten (None, 50, 768)     1536       Encoder-5-MultiHeadSelfAttenti
__________________________________________________________________________________________
Encoder-5-FeedForward (FeedF (None, 50, 768)     4722432    Encoder-5-MultiHeadSelfAttenti
__________________________________________________________________________________________
Encoder-5-FeedForward-Dropou (None, 50, 768)     0          Encoder-5-FeedForward[0][0]   
__________________________________________________________________________________________
Encoder-5-FeedForward-Add (A (None, 50, 768)     0          Encoder-5-MultiHeadSelfAttenti
                                                            Encoder-5-FeedForward-Dropout[
__________________________________________________________________________________________
Encoder-5-FeedForward-Norm ( (None, 50, 768)     1536       Encoder-5-FeedForward-Add[0][0
__________________________________________________________________________________________
Encoder-6-MultiHeadSelfAtten (None, 50, 768)     2362368    Encoder-5-FeedForward-Norm[0][
__________________________________________________________________________________________
Encoder-6-MultiHeadSelfAtten (None, 50, 768)     0          Encoder-6-MultiHeadSelfAttenti
__________________________________________________________________________________________
Encoder-6-MultiHeadSelfAtten (None, 50, 768)     0          Encoder-5-FeedForward-Norm[0][
                                                            Encoder-6-MultiHeadSelfAttenti
__________________________________________________________________________________________
Encoder-6-MultiHeadSelfAtten (None, 50, 768)     1536       Encoder-6-MultiHeadSelfAttenti
__________________________________________________________________________________________
Encoder-6-FeedForward (FeedF (None, 50, 768)     4722432    Encoder-6-MultiHeadSelfAttenti
__________________________________________________________________________________________
Encoder-6-FeedForward-Dropou (None, 50, 768)     0          Encoder-6-FeedForward[0][0]   
__________________________________________________________________________________________
Encoder-6-FeedForward-Add (A (None, 50, 768)     0          Encoder-6-MultiHeadSelfAttenti
                                                            Encoder-6-FeedForward-Dropout[
__________________________________________________________________________________________
Encoder-6-FeedForward-Norm ( (None, 50, 768)     1536       Encoder-6-FeedForward-Add[0][0
__________________________________________________________________________________________
Encoder-7-MultiHeadSelfAtten (None, 50, 768)     2362368    Encoder-6-FeedForward-Norm[0][
__________________________________________________________________________________________
Encoder-7-MultiHeadSelfAtten (None, 50, 768)     0          Encoder-7-MultiHeadSelfAttenti
__________________________________________________________________________________________
Encoder-7-MultiHeadSelfAtten (None, 50, 768)     0          Encoder-6-FeedForward-Norm[0][
                                                            Encoder-7-MultiHeadSelfAttenti
__________________________________________________________________________________________
Encoder-7-MultiHeadSelfAtten (None, 50, 768)     1536       Encoder-7-MultiHeadSelfAttenti
__________________________________________________________________________________________
Encoder-7-FeedForward (FeedF (None, 50, 768)     4722432    Encoder-7-MultiHeadSelfAttenti
__________________________________________________________________________________________
Encoder-7-FeedForward-Dropou (None, 50, 768)     0          Encoder-7-FeedForward[0][0]   
__________________________________________________________________________________________
Encoder-7-FeedForward-Add (A (None, 50, 768)     0          Encoder-7-MultiHeadSelfAttenti
                                                            Encoder-7-FeedForward-Dropout[
__________________________________________________________________________________________
Encoder-7-FeedForward-Norm ( (None, 50, 768)     1536       Encoder-7-FeedForward-Add[0][0
__________________________________________________________________________________________
Encoder-8-MultiHeadSelfAtten (None, 50, 768)     2362368    Encoder-7-FeedForward-Norm[0][
__________________________________________________________________________________________
Encoder-8-MultiHeadSelfAtten (None, 50, 768)     0          Encoder-8-MultiHeadSelfAttenti
__________________________________________________________________________________________
Encoder-8-MultiHeadSelfAtten (None, 50, 768)     0          Encoder-7-FeedForward-Norm[0][
                                                            Encoder-8-MultiHeadSelfAttenti
__________________________________________________________________________________________
Encoder-8-MultiHeadSelfAtten (None, 50, 768)     1536       Encoder-8-MultiHeadSelfAttenti
__________________________________________________________________________________________
Encoder-8-FeedForward (FeedF (None, 50, 768)     4722432    Encoder-8-MultiHeadSelfAttenti
__________________________________________________________________________________________
Encoder-8-FeedForward-Dropou (None, 50, 768)     0          Encoder-8-FeedForward[0][0]   
__________________________________________________________________________________________
Encoder-8-FeedForward-Add (A (None, 50, 768)     0          Encoder-8-MultiHeadSelfAttenti
                                                            Encoder-8-FeedForward-Dropout[
__________________________________________________________________________________________
Encoder-8-FeedForward-Norm ( (None, 50, 768)     1536       Encoder-8-FeedForward-Add[0][0
__________________________________________________________________________________________
Encoder-9-MultiHeadSelfAtten (None, 50, 768)     2362368    Encoder-8-FeedForward-Norm[0][
__________________________________________________________________________________________
Encoder-9-MultiHeadSelfAtten (None, 50, 768)     0          Encoder-9-MultiHeadSelfAttenti
__________________________________________________________________________________________
Encoder-9-MultiHeadSelfAtten (None, 50, 768)     0          Encoder-8-FeedForward-Norm[0][
                                                            Encoder-9-MultiHeadSelfAttenti
__________________________________________________________________________________________
Encoder-9-MultiHeadSelfAtten (None, 50, 768)     1536       Encoder-9-MultiHeadSelfAttenti
__________________________________________________________________________________________
Encoder-9-FeedForward (FeedF (None, 50, 768)     4722432    Encoder-9-MultiHeadSelfAttenti
__________________________________________________________________________________________
Encoder-9-FeedForward-Dropou (None, 50, 768)     0          Encoder-9-FeedForward[0][0]   
__________________________________________________________________________________________
Encoder-9-FeedForward-Add (A (None, 50, 768)     0          Encoder-9-MultiHeadSelfAttenti
                                                            Encoder-9-FeedForward-Dropout[
__________________________________________________________________________________________
Encoder-9-FeedForward-Norm ( (None, 50, 768)     1536       Encoder-9-FeedForward-Add[0][0
__________________________________________________________________________________________
Encoder-10-MultiHeadSelfAtte (None, 50, 768)     2362368    Encoder-9-FeedForward-Norm[0][
__________________________________________________________________________________________
Encoder-10-MultiHeadSelfAtte (None, 50, 768)     0          Encoder-10-MultiHeadSelfAttent
__________________________________________________________________________________________
Encoder-10-MultiHeadSelfAtte (None, 50, 768)     0          Encoder-9-FeedForward-Norm[0][
                                                            Encoder-10-MultiHeadSelfAttent
__________________________________________________________________________________________
Encoder-10-MultiHeadSelfAtte (None, 50, 768)     1536       Encoder-10-MultiHeadSelfAttent
__________________________________________________________________________________________
Encoder-10-FeedForward (Feed (None, 50, 768)     4722432    Encoder-10-MultiHeadSelfAttent
__________________________________________________________________________________________
Encoder-10-FeedForward-Dropo (None, 50, 768)     0          Encoder-10-FeedForward[0][0]  
__________________________________________________________________________________________
Encoder-10-FeedForward-Add ( (None, 50, 768)     0          Encoder-10-MultiHeadSelfAttent
                                                            Encoder-10-FeedForward-Dropout
__________________________________________________________________________________________
Encoder-10-FeedForward-Norm  (None, 50, 768)     1536       Encoder-10-FeedForward-Add[0][
__________________________________________________________________________________________
Encoder-11-MultiHeadSelfAtte (None, 50, 768)     2362368    Encoder-10-FeedForward-Norm[0]
__________________________________________________________________________________________
Encoder-11-MultiHeadSelfAtte (None, 50, 768)     0          Encoder-11-MultiHeadSelfAttent
__________________________________________________________________________________________
Encoder-11-MultiHeadSelfAtte (None, 50, 768)     0          Encoder-10-FeedForward-Norm[0]
                                                            Encoder-11-MultiHeadSelfAttent
__________________________________________________________________________________________
Encoder-11-MultiHeadSelfAtte (None, 50, 768)     1536       Encoder-11-MultiHeadSelfAttent
__________________________________________________________________________________________
Encoder-11-FeedForward (Feed (None, 50, 768)     4722432    Encoder-11-MultiHeadSelfAttent
__________________________________________________________________________________________
Encoder-11-FeedForward-Dropo (None, 50, 768)     0          Encoder-11-FeedForward[0][0]  
__________________________________________________________________________________________
Encoder-11-FeedForward-Add ( (None, 50, 768)     0          Encoder-11-MultiHeadSelfAttent
                                                            Encoder-11-FeedForward-Dropout
__________________________________________________________________________________________
Encoder-11-FeedForward-Norm  (None, 50, 768)     1536       Encoder-11-FeedForward-Add[0][
__________________________________________________________________________________________
Encoder-12-MultiHeadSelfAtte (None, 50, 768)     2362368    Encoder-11-FeedForward-Norm[0]
__________________________________________________________________________________________
Encoder-12-MultiHeadSelfAtte (None, 50, 768)     0          Encoder-12-MultiHeadSelfAttent
__________________________________________________________________________________________
Encoder-12-MultiHeadSelfAtte (None, 50, 768)     0          Encoder-11-FeedForward-Norm[0]
                                                            Encoder-12-MultiHeadSelfAttent
__________________________________________________________________________________________
Encoder-12-MultiHeadSelfAtte (None, 50, 768)     1536       Encoder-12-MultiHeadSelfAttent
__________________________________________________________________________________________
Encoder-12-FeedForward (Feed (None, 50, 768)     4722432    Encoder-12-MultiHeadSelfAttent
__________________________________________________________________________________________
Encoder-12-FeedForward-Dropo (None, 50, 768)     0          Encoder-12-FeedForward[0][0]  
__________________________________________________________________________________________
Encoder-12-FeedForward-Add ( (None, 50, 768)     0          Encoder-12-MultiHeadSelfAttent
                                                            Encoder-12-FeedForward-Dropout
__________________________________________________________________________________________
Encoder-12-FeedForward-Norm  (None, 50, 768)     1536       Encoder-12-FeedForward-Add[0][
__________________________________________________________________________________________
Extract (Extract)            (None, 768)         0          Encoder-12-FeedForward-Norm[0]
__________________________________________________________________________________________
NSP-Dense (Dense)            (None, 768)         590592     Extract[0][0]                 
__________________________________________________________________________________________
output (Dense)               (None, 1)           769        NSP-Dense[0][0]               
==========================================================================================
Total params: 109,128,193
Trainable params: 109,128,193
Non-trainable params: 0
__________________________________________________________________________________________
```

## Compile model and begin training 

Aus usual with Keras, before training a model, we need to compile the model. And using ```fit()```, we feed it the R arrays.
…
