…
                         name = &amp;#39;output&amp;#39;)

model = keras_model(inputs = inputs,outputs = outputs)&lt;/code&gt;&lt;/pre&gt;
&lt;p&gt;This is how the model architecture looks like after adding a dense layer and padding input sequences.&lt;/p&gt;
&lt;pre class="r"&gt;&lt;code&gt;Model
__________________________________________________________________________________________
Layer (type)                 Output Shape        Param #    Connected to                  
==========================================================================================
Input-Token (InputLayer)     (None, 50)          0                                        
__________________________________________________________________________________________
Input-Segment (InputLayer)   (None, 50)          0                                        
__________________________________________________________________________________________
Embedding-Token (TokenEmbedd [(None, 50, 768), ( 23440896   Input-Token[0][0]             
__________________________________________________________________________________________
Embedding-Segment (Embedding (None, 50, 768)     1536       Input-Segment[0][0]           
__________________________________________________________________________________________
Embedding-Token-Segment (Add (None, 50, 768)     0          Embedding-Token[0][0]         
                                                            Embedding-Segment[0][0]       
__________________________________________________________________________________________
Embedding-Position (Position (None, 50, 768)     38400      Embedding-Token-Segment[0][0] 
__________________________________________________________________________________________
Embedding-Dropout (Dropout)  (None, 50, 768)     0          Embedding-Position[0][0]      
__________________________________________________________________________________________
Embedding-Norm (LayerNormali (None, 50, 768)     1536       Embedding-Dropout[0][0]       
__________________________________________________________________________________________
Encoder-1-MultiHeadSelfAtten (None, 50, 768)     2362368    Embedding-Norm[0][0]          
__________________________________________________________________________________________
Encoder-1-MultiHeadSelfAtten (None, 50, 768)     0          Encoder-1-MultiHeadSelfAttenti
__________________________________________________________________________________________
Encoder-1-MultiHeadSelfAtten (None, 50, 768)     0          Embedding-Norm[0][0]          
                                                            Encoder-1-MultiHeadSelfAttenti
__________________________________________________________________________________________
Encoder-1-MultiHeadSelfAtten (None, 50, 768)     1536       Encoder-1-MultiHeadSelfAttenti
__________________________________________________________________________________________
Encoder-1-FeedForward (FeedF (None, 50, 768)     4722432    Encoder-1-MultiHeadSelfAttenti
__________________________________________________________________________________________
Encoder-1-FeedForward-Dropou (None, 50, 768)     0          Encoder-1-FeedForward[0][0]   
__________________________________________________________________________________________
Encoder-1-FeedForward-Add (A (None, 50, 768)     0          Encoder-1-MultiHeadSelfAttenti
                                                            Encoder-1-FeedForward-Dropout[
__________________________________________________________________________________________
Encoder-1-FeedForward-Norm ( (None, 50, 768)     1536       Encoder-1-FeedForward-Add[0][0
__________________________________________________________________________________________
Encoder-2-MultiHeadSelfAtten (None, 50, 768)     2362368    Encoder-1-FeedForward-Norm[0][
__________________________________________________________________________________________
Encoder-2-MultiHeadSelfAtten (None, 50, 768)     0          Encoder-2-MultiHeadSelfAttenti
__________________________________________________________________________________________
Encoder-2-MultiHeadSelfAtten (None, 50, 768)     0          Encoder-1-FeedForward-Norm[0][
                                                            Encoder-2-MultiHeadSelfAttenti
__________________________________________________________________________________________
Encoder-2-MultiHeadSelfAtten (None, 50, 768)     1536       Encoder-2-MultiHeadSelfAttenti
__________________________________________________________________________________________
Encoder-2-FeedForward (FeedF (None, 50, 768)     4722432    Encoder-2-MultiHeadSelfAttenti
__________________________________________________________________________________________
Encoder-2-FeedForward-Dropou (None, 50, 768)     0          Encoder-2-FeedForward[0][0]   
__________________________________________________________________________________________
Encoder-2-FeedForward-Add (A (None, 50, 768)     0          Encoder-2-MultiHeadSelfAttenti
                                                            Encoder-2-FeedForward-Dropout[
__________________________________________________________________________________________
Encoder-2-FeedForward-Norm ( (None, 50, 768)     1536       Encoder-2-FeedForward-Add[0][0
__________________________________________________________________________________________
Encoder-3-MultiHeadSelfAtten (None, 50, 768)     2362368    Encoder-2-FeedForward-Norm[0][
__________________________________________________________________________________________
Encoder-3-MultiHeadSelfAtten (None, 50, 768)     0          Encoder-3-MultiHeadSelfAttenti
__________________________________________________________________________________________
Encoder-3-MultiHeadSelfAtten (None, 50, 768)     0          Encoder-2-FeedForward-Norm[0][
                                                            Encoder-3-MultiHeadSelfAttenti
__________________________________________________________________________________________
Encoder-3-MultiHeadSelfAtten (None, 50, 768)     1536       Encoder-3-MultiHeadSelfAttenti
__________________________________________________________________________________________
Encoder-3-FeedForward (FeedF (None, 50, 768)     4722432    Encoder-3-MultiHeadSelfAttenti
__________________________________________________________________________________________
Encoder-3-FeedForward-Dropou (None, 50, 768)     0          Encoder-3-FeedForward[0][0]   
__________________________________________________________________________________________
Encoder-3-FeedForward-Add (A (None, 50, 768)     0          Encoder-3-MultiHeadSelfAttenti
                                                            Encoder-3-FeedForward-Dropout[
__________________________________________________________________________________________
Encoder-3-FeedForward-Norm ( (None, 50, 768)     1536       Encoder-3-FeedForward-Add[0][0
__________________________________________________________________________________________
Encoder-4-MultiHeadSelfAtten (None, 50, 768)     2362368    Encoder-3-FeedForward-Norm[0][
__________________________________________________________________________________________
Encoder-4-MultiHeadSelfAtten (None, 50, 768)     0          Encoder-4-MultiHeadSelfAttenti
__________________________________________________________________________________________
Encoder-4-MultiHeadSelfAtten (None, 50, 768)     0          Encoder-3-FeedForward-Norm[0][
                                                            Encoder-4-MultiHeadSelfAttenti
__________________________________________________________________________________________
Encoder-4-MultiHeadSelfAtten (None, 50, 768)     1536       Encoder-4-MultiHeadSelfAttenti
__________________________________________________________________________________________
Encoder-4-FeedForward (FeedF (None, 50, 768)     4722432    Encoder-4-MultiHeadSelfAttenti
__________________________________________________________________________________________
Encoder-4-FeedForward-Dropou (None, 50, 768)     0          Encoder-4-FeedForward[0][0]   
__________________________________________________________________________________________
Encoder-4-FeedForward-Add (A (None, 50, 768)     0          Encoder-4-MultiHeadSelfAttenti
                                                            Encoder-4-FeedForward-Dropout[
__________________________________________________________________________________________
Encoder-4-FeedForward-Norm ( (None, 50, 768)     1536       Encoder-4-FeedForward-Add[0][0
__________________________________________________________________________________________
Encoder-5-MultiHeadSelfAtten (None, 50, 768)     2362368    Encoder-4-FeedForward-Norm[0][
__________________________________________________________________________________________
Encoder-5-MultiHeadSelfAtten (None, 50, 768)     0          Encoder-5-MultiHeadSelfAttenti
__________________________________________________________________________________________
Encoder-5-MultiHeadSelfAtten (None, 50, 768)     0          Encoder-4-FeedForward-Norm[0][
                                                            Encoder-5-MultiHeadSelfAttenti
__________________________________________________________________________________________
Encoder-5-MultiHeadSelfAtten (None, 50, 768)     1536       Encoder-5-MultiHeadSelfAttenti
__________________________________________________________________________________________
Encoder-5-FeedForward (FeedF (None, 50, 768)     4722432    Encoder-5-MultiHeadSelfAttenti
__________________________________________________________________________________________
Encoder-5-FeedForward-Dropou (None, 50, 768)     0          Encoder-5-FeedForward[0][0]   
__________________________________________________________________________________________
Encoder-5-FeedForward-Add (A (None, 50, 768)     0          Encoder-5-MultiHeadSelfAttenti
                                                            Encoder-5-FeedForward-Dropout[
__________________________________________________________________________________________
Encoder-5-FeedForward-Norm ( (None, 50, 768)     1536       Encoder-5-FeedForward-Add[0][0
__________________________________________________________________________________________
Encoder-6-MultiHeadSelfAtten (None, 50, 768)     2362368    Encoder-5-FeedForward-Norm[0][
__________________________________________________________________________________________
Encoder-6-MultiHeadSelfAtten (None, 50, 768)     0          Encoder-6-MultiHeadSelfAttenti
__________________________________________________________________________________________
Encoder-6-MultiHeadSelfAtten (None, 50, 768)     0          Encoder-5-FeedForward-Norm[0][
                                                            Encoder-6-MultiHeadSelfAttenti
__________________________________________________________________________________________
Encoder-6-MultiHeadSelfAtten (None, 50, 768)     1536       Encoder-6-MultiHeadSelfAttenti
__________________________________________________________________________________________
Encoder-6-FeedForward (FeedF (None, 50, 768)     4722432    Encoder-6-MultiHeadSelfAttenti
__________________________________________________________________________________________
Encoder-6-FeedForward-Dropou (None, 50, 768)     0          Encoder-6-FeedForward[0][0]   
__________________________________________________________________________________________
Encoder-6-FeedForward-Add (A (None, 50, 768)     0          Encoder-6-MultiHeadSelfAttenti
                                                            Encoder-6-FeedForward-Dropout[
__________________________________________________________________________________________
Encoder-6-FeedForward-Norm ( (None, 50, 768)     1536       Encoder-6-FeedForward-Add[0][0
__________________________________________________________________________________________
Encoder-7-MultiHeadSelfAtten (None, 50, 768)     2362368    Encoder-6-FeedForward-Norm[0][
__________________________________________________________________________________________
Encoder-7-MultiHeadSelfAtten (None, 50, 768)     0          Encoder-7-MultiHeadSelfAttenti
__________________________________________________________________________________________
Encoder-7-MultiHeadSelfAtten (None, 50, 768)     0          Encoder-6-FeedForward-Norm[0][
                                                            Encoder-7-MultiHeadSelfAttenti
__________________________________________________________________________________________
Encoder-7-MultiHeadSelfAtten (None, 50, 768)     1536       Encoder-7-MultiHeadSelfAttenti
__________________________________________________________________________________________
Encoder-7-FeedForward (FeedF (None, 50, 768)     4722432    Encoder-7-MultiHeadSelfAttenti
__________________________________________________________________________________________
Encoder-7-FeedForward-Dropou (None, 50, 768)     0          Encoder-7-FeedForward[0][0]   
__________________________________________________________________________________________
Encoder-7-FeedForward-Add (A (None, 50, 768)     0          Encoder-7-MultiHeadSelfAttenti
                                                            Encoder-7-FeedForward-Dropout[
__________________________________________________________________________________________
Encoder-7-FeedForward-Norm ( (None, 50, 768)     1536       Encoder-7-FeedForward-Add[0][0
__________________________________________________________________________________________
Encoder-8-MultiHeadSelfAtten (None, 50, 768)     2362368    Encoder-7-FeedForward-Norm[0][
__________________________________________________________________________________________
Encoder-8-MultiHeadSelfAtten (None, 50, 768)     0          Encoder-8-MultiHeadSelfAttenti
__________________________________________________________________________________________
Encoder-8-MultiHeadSelfAtten (None, 50, 768)     0          Encoder-7-FeedForward-Norm[0][
                                                            Encoder-8-MultiHeadSelfAttenti
__________________________________________________________________________________________
Encoder-8-MultiHeadSelfAtten (None, 50, 768)     1536       Encoder-8-MultiHeadSelfAttenti
__________________________________________________________________________________________
Encoder-8-FeedForward (FeedF (None, 50, 768)     4722432    Encoder-8-MultiHeadSelfAttenti
__________________________________________________________________________________________
Encoder-8-FeedForward-Dropou (None, 50, 768)     0          Encoder-8-FeedForward[0][0]   
__________________________________________________________________________________________
Encoder-8-FeedForward-Add (A (None, 50, 768)     0          Encoder-8-MultiHeadSelfAttenti
                                                            Encoder-8-FeedForward-Dropout[
__________________________________________________________________________________________
Encoder-8-FeedForward-Norm ( (None, 50, 768)     1536       Encoder-8-FeedForward-Add[0][0
__________________________________________________________________________________________
Encoder-9-MultiHeadSelfAtten (None, 50, 768)     2362368    Encoder-8-FeedForward-Norm[0][
__________________________________________________________________________________________
Encoder-9-MultiHeadSelfAtten (None, 50, 768)     0          Encoder-9-MultiHeadSelfAttenti
__________________________________________________________________________________________
Encoder-9-MultiHeadSelfAtten (None, 50, 768)     0          Encoder-8-FeedForward-Norm[0][
                                                            Encoder-9-MultiHeadSelfAttenti
__________________________________________________________________________________________
Encoder-9-MultiHeadSelfAtten (None, 50, 768)     1536       Encoder-9-MultiHeadSelfAttenti
__________________________________________________________________________________________
Encoder-9-FeedForward (FeedF (None, 50, 768)     4722432    Encoder-9-MultiHeadSelfAttenti
__________________________________________________________________________________________
Encoder-9-FeedForward-Dropou (None, 50, 768)     0          Encoder-9-FeedForward[0][0]   
__________________________________________________________________________________________
Encoder-9-FeedForward-Add (A (None, 50, 768)     0          Encoder-9-MultiHeadSelfAttenti
                                                            Encoder-9-FeedForward-Dropout[
__________________________________________________________________________________________
Encoder-9-FeedForward-Norm ( (None, 50, 768)     1536       Encoder-9-FeedForward-Add[0][0
__________________________________________________________________________________________
Encoder-10-MultiHeadSelfAtte (None, 50, 768)     2362368    Encoder-9-FeedForward-Norm[0][
__________________________________________________________________________________________
Encoder-10-MultiHeadSelfAtte (None, 50, 768)     0          Encoder-10-MultiHeadSelfAttent
__________________________________________________________________________________________
Encoder-10-MultiHeadSelfAtte (None, 50, 768)     0          Encoder-9-FeedForward-Norm[0][
                                                            Encoder-10-MultiHeadSelfAttent
__________________________________________________________________________________________
Encoder-10-MultiHeadSelfAtte (None, 50, 768)     1536       Encoder-10-MultiHeadSelfAttent
__________________________________________________________________________________________
Encoder-10-FeedForward (Feed (None, 50, 768)     4722432    Encoder-10-MultiHeadSelfAttent
__________________________________________________________________________________________
Encoder-10-FeedForward-Dropo (None, 50, 768)     0          Encoder-10-FeedForward[0][0]  
__________________________________________________________________________________________
Encoder-10-FeedForward-Add ( (None, 50, 768)     0          Encoder-10-MultiHeadSelfAttent
                                                            Encoder-10-FeedForward-Dropout
__________________________________________________________________________________________
Encoder-10-FeedForward-Norm  (None, 50, 768)     1536       Encoder-10-FeedForward-Add[0][
__________________________________________________________________________________________
Encoder-11-MultiHeadSelfAtte (None, 50, 768)     2362368    Encoder-10-FeedForward-Norm[0]
__________________________________________________________________________________________
Encoder-11-MultiHeadSelfAtte (None, 50, 768)     0          Encoder-11-MultiHeadSelfAttent
__________________________________________________________________________________________
Encoder-11-MultiHeadSelfAtte (None, 50, 768)     0          Encoder-10-FeedForward-Norm[0]
                                                            Encoder-11-MultiHeadSelfAttent
__________________________________________________________________________________________
Encoder-11-MultiHeadSelfAtte (None, 50, 768)     1536       Encoder-11-MultiHeadSelfAttent
__________________________________________________________________________________________
Encoder-11-FeedForward (Feed (None, 50, 768)     4722432    Encoder-11-MultiHeadSelfAttent
__________________________________________________________________________________________
Encoder-11-FeedForward-Dropo (None, 50, 768)     0          Encoder-11-FeedForward[0][0]  
__________________________________________________________________________________________
Encoder-11-FeedForward-Add ( (None, 50, 768)     0          Encoder-11-MultiHeadSelfAttent
                                                            Encoder-11-FeedForward-Dropout
__________________________________________________________________________________________
Encoder-11-FeedForward-Norm  (None, 50, 768)     1536       Encoder-11-FeedForward-Add[0][
__________________________________________________________________________________________
Encoder-12-MultiHeadSelfAtte (None, 50, 768)     2362368    Encoder-11-FeedForward-Norm[0]
__________________________________________________________________________________________
Encoder-12-MultiHeadSelfAtte (None, 50, 768)     0          Encoder-12-MultiHeadSelfAttent
__________________________________________________________________________________________
Encoder-12-MultiHeadSelfAtte (None, 50, 768)     0          Encoder-11-FeedForward-Norm[0]
                                                            Encoder-12-MultiHeadSelfAttent
__________________________________________________________________________________________
Encoder-12-MultiHeadSelfAtte (None, 50, 768)     1536       Encoder-12-MultiHeadSelfAttent
__________________________________________________________________________________________
Encoder-12-FeedForward (Feed (None, 50, 768)     4722432    Encoder-12-MultiHeadSelfAttent
__________________________________________________________________________________________
Encoder-12-FeedForward-Dropo (None, 50, 768)     0          Encoder-12-FeedForward[0][0]  
__________________________________________________________________________________________
Encoder-12-FeedForward-Add ( (None, 50, 768)     0          Encoder-12-MultiHeadSelfAttent
                                                            Encoder-12-FeedForward-Dropout
__________________________________________________________________________________________
Encoder-12-FeedForward-Norm  (None, 50, 768)     1536       Encoder-12-FeedForward-Add[0][
__________________________________________________________________________________________
Extract (Extract)            (None, 768)         0          Encoder-12-FeedForward-Norm[0]
__________________________________________________________________________________________
NSP-Dense (Dense)            (None, 768)         590592     Extract[0][0]                 
__________________________________________________________________________________________
output (Dense)               (None, 1)           769        NSP-Dense[0][0]               
==========================================================================================
Total params: 109,128,193
Trainable params: 109,128,193
Non-trainable params: 0
__________________________________________________________________________________________&lt;/code&gt;&lt;/pre&gt;
&lt;h2 id="compile-model-and-begin-training"&gt;Compile model and begin training&lt;/h2&gt;
…
input_1 (InputLayer)           [(None, 128, 128, 3 0                                          
______________________________________________________________________________________________
conv2d (Conv2D)                (None, 128, 128, 64 1792       input_1[0][0]                   
______________________________________________________________________________________________
conv2d_1 (Conv2D)              (None, 128, 128, 64 36928      conv2d[0][0]                    
______________________________________________________________________________________________
max_pooling2d (MaxPooling2D)   (None, 64, 64, 64)  0          conv2d_1[0][0]                  
______________________________________________________________________________________________
conv2d_2 (Conv2D)              (None, 64, 64, 128) 73856      max_pooling2d[0][0]             
______________________________________________________________________________________________
conv2d_3 (Conv2D)              (None, 64, 64, 128) 147584     conv2d_2[0][0]                  
______________________________________________________________________________________________
max_pooling2d_1 (MaxPooling2D) (None, 32, 32, 128) 0          conv2d_3[0][0]                  
______________________________________________________________________________________________
conv2d_4 (Conv2D)              (None, 32, 32, 256) 295168     max_pooling2d_1[0][0]           
______________________________________________________________________________________________
conv2d_5 (Conv2D)              (None, 32, 32, 256) 590080     conv2d_4[0][0]                  
______________________________________________________________________________________________
max_pooling2d_2 (MaxPooling2D) (None, 16, 16, 256) 0          conv2d_5[0][0]                  
______________________________________________________________________________________________
conv2d_6 (Conv2D)              (None, 16, 16, 512) 1180160    max_pooling2d_2[0][0]           
______________________________________________________________________________________________
conv2d_7 (Conv2D)              (None, 16, 16, 512) 2359808    conv2d_6[0][0]                  
______________________________________________________________________________________________
max_pooling2d_3 (MaxPooling2D) (None, 8, 8, 512)   0          conv2d_7[0][0]                  
______________________________________________________________________________________________
dropout (Dropout)              (None, 8, 8, 512)   0          max_pooling2d_3[0][0]           
______________________________________________________________________________________________
conv2d_8 (Conv2D)              (None, 8, 8, 1024)  4719616    dropout[0][0]                   
______________________________________________________________________________________________
conv2d_9 (Conv2D)              (None, 8, 8, 1024)  9438208    conv2d_8[0][0]                  
______________________________________________________________________________________________
conv2d_transpose (Conv2DTransp (None, 16, 16, 512) 2097664    conv2d_9[0][0]                  
______________________________________________________________________________________________
concatenate (Concatenate)      (None, 16, 16, 1024 0          conv2d_7[0][0]                  
                                                              conv2d_transpose[0][0]          
______________________________________________________________________________________________
conv2d_10 (Conv2D)             (None, 16, 16, 512) 4719104    concatenate[0][0]               
______________________________________________________________________________________________
conv2d_11 (Conv2D)             (None, 16, 16, 512) 2359808    conv2d_10[0][0]                 
______________________________________________________________________________________________
conv2d_transpose_1 (Conv2DTran (None, 32, 32, 256) 524544     conv2d_11[0][0]                 
______________________________________________________________________________________________
concatenate_1 (Concatenate)    (None, 32, 32, 512) 0          conv2d_5[0][0]                  
                                                              conv2d_transpose_1[0][0]        
______________________________________________________________________________________________
conv2d_12 (Conv2D)             (None, 32, 32, 256) 1179904    concatenate_1[0][0]             
______________________________________________________________________________________________
conv2d_13 (Conv2D)             (None, 32, 32, 256) 590080     conv2d_12[0][0]                 
______________________________________________________________________________________________
conv2d_transpose_2 (Conv2DTran (None, 64, 64, 128) 131200     conv2d_13[0][0]                 
______________________________________________________________________________________________
concatenate_2 (Concatenate)    (None, 64, 64, 256) 0          conv2d_3[0][0]                  
                                                              conv2d_transpose_2[0][0]        
______________________________________________________________________________________________
conv2d_14 (Conv2D)             (None, 64, 64, 128) 295040     concatenate_2[0][0]             
______________________________________________________________________________________________
conv2d_15 (Conv2D)             (None, 64, 64, 128) 147584     conv2d_14[0][0]                 
______________________________________________________________________________________________
conv2d_transpose_3 (Conv2DTran (None, 128, 128, 64 32832      conv2d_15[0][0]                 
______________________________________________________________________________________________
concatenate_3 (Concatenate)    (None, 128, 128, 12 0          conv2d_1[0][0]                  
…
able from keras itself:&lt;/p&gt;
&lt;pre class="r"&gt;&lt;code&gt;library(keras)
library(lime)
library(magick)

model &amp;lt;- application_vgg16(
  weights = &amp;quot;imagenet&amp;quot;,
  include_top = TRUE
)
model&lt;/code&gt;&lt;/pre&gt;
&lt;pre&gt;&lt;code&gt;Model
______________________________________________________________________________________________
Layer (type)                              Output Shape                         Param #        
==============================================================================================
input_1 (InputLayer)                      (None, 224, 224, 3)                  0              
______________________________________________________________________________________________
block1_conv1 (Conv2D)                     (None, 224, 224, 64)                 1792           
______________________________________________________________________________________________
block1_conv2 (Conv2D)                     (None, 224, 224, 64)                 36928          
______________________________________________________________________________________________
block1_pool (MaxPooling2D)                (None, 112, 112, 64)                 0              
______________________________________________________________________________________________
block2_conv1 (Conv2D)                     (None, 112, 112, 128)                73856          
______________________________________________________________________________________________
block2_conv2 (Conv2D)                     (None, 112, 112, 128)                147584         
______________________________________________________________________________________________
block2_pool (MaxPooling2D)                (None, 56, 56, 128)                  0              
______________________________________________________________________________________________
block3_conv1 (Conv2D)                     (None, 56, 56, 256)                  295168         
______________________________________________________________________________________________
block3_conv2 (Conv2D)                     (None, 56, 56, 256)                  590080         
______________________________________________________________________________________________
block3_conv3 (Conv2D)                     (None, 56, 56, 256)                  590080         
______________________________________________________________________________________________
block3_pool (MaxPooling2D)                (None, 28, 28, 256)                  0              
______________________________________________________________________________________________
block4_conv1 (Conv2D)                     (None, 28, 28, 512)                  1180160        
______________________________________________________________________________________________
block4_conv2 (Conv2D)                     (None, 28, 28, 512)                  2359808        
______________________________________________________________________________________________
block4_conv3 (Conv2D)                     (None, 28, 28, 512)                  2359808        
______________________________________________________________________________________________
block4_pool (MaxPooling2D)                (None, 14, 14, 512)                  0              
______________________________________________________________________________________________
block5_conv1 (Conv2D)                     (None, 14, 14, 512)                  2359808        
______________________________________________________________________________________________
block5_conv2 (Conv2D)                     (None, 14, 14, 512)                  2359808        
______________________________________________________________________________________________
block5_conv3 (Conv2D)                     (None, 14, 14, 512)                  2359808        
______________________________________________________________________________________________
block5_pool (MaxPooling2D)                (None, 7, 7, 512)                    0              
______________________________________________________________________________________________
flatten (Flatten)                         (None, 25088)                        0              
______________________________________________________________________________________________
fc1 (Dense)                               (None, 4096)                         102764544      
______________________________________________________________________________________________
fc2 (Dense)                               (None, 4096)                         16781312       
______________________________________________________________________________________________
predictions (Dense)                       (None, 1000)                         4097000        
==============================================================================================
Total params: 138,357,544
Trainable params: 138,357,544
Non-trainable params: 0
______________________________________________________________________________________________
&lt;/code&gt;&lt;/pre&gt;
&lt;p&gt;The vgg16 model is an image classification model that has been build as part of the ImageNet competition where the goal is to classify pictures into 1000 categories with the highest accuracy. As we can see it is fairly complicated.&lt;/p&gt;
…
&lt;p&gt;The &lt;code&gt;input_shape&lt;/code&gt; argument to the first layer specifies the shape of the input data (a length 180 numeric vector representing a peptide ‘image’). The final layer outputs a length 3 numeric vector (probabilities for each class &lt;code&gt;SB&lt;/code&gt;, &lt;code&gt;WB&lt;/code&gt; and &lt;code&gt;NB&lt;/code&gt;) using a softmax activation function.&lt;/p&gt;
&lt;p&gt;We can use the &lt;code&gt;summary()&lt;/code&gt; function to print the details of the model:&lt;/p&gt;
&lt;pre class="r"&gt;&lt;code&gt;summary(model)&lt;/code&gt;&lt;/pre&gt;
&lt;pre&gt;&lt;code&gt;Layer (type)                        Output Shape                    Param #     
================================================================================
dense_1 (Dense)                     (None, 180)                     32580       
________________________________________________________________________________
dropout_1 (Dropout)                 (None, 180)                     0           
________________________________________________________________________________
dense_2 (Dense)                     (None, 90)                      16290       
________________________________________________________________________________
dropout_2 (Dropout)                 (None, 90)                      0           
________________________________________________________________________________
dense_3 (Dense)                     (None, 3)                       273         
================================================================================
Total params: 49,143
Trainable params: 49,143
Non-trainable params: 0
________________________________________________________________________________&lt;/code&gt;&lt;/pre&gt;
&lt;p&gt;Next, we compile the model with appropriate loss function, optimizer, and metrics:&lt;/p&gt;
&lt;pre class="r"&gt;&lt;code&gt;model %&amp;gt;% compile(
…
    activation         = &amp;quot;sigmoid&amp;quot;) %&amp;gt;% 
  
  # Compile ANN
  compile(
    optimizer = &amp;#39;adam&amp;#39;,
    loss      = &amp;#39;binary_crossentropy&amp;#39;,
    metrics   = c(&amp;#39;accuracy&amp;#39;)
  )

keras_model&lt;/code&gt;&lt;/pre&gt;
&lt;pre&gt;&lt;code&gt;Model
___________________________________________________________________________________________________
Layer (type)                                Output Shape                            Param #        
===================================================================================================
dense_1 (Dense)                             (None, 16)                              576            
___________________________________________________________________________________________________
dropout_1 (Dropout)                         (None, 16)                              0              
___________________________________________________________________________________________________
dense_2 (Dense)                             (None, 16)                              272            
___________________________________________________________________________________________________
dropout_2 (Dropout)                         (None, 16)                              0              
___________________________________________________________________________________________________
dense_3 (Dense)                             (None, 1)                               17             
===================================================================================================
Total params: 865
Trainable params: 865
Non-trainable params: 0
___________________________________________________________________________________________________&lt;/code&gt;&lt;/pre&gt;
&lt;p&gt;We use the &lt;code&gt;fit()&lt;/code&gt; function to run the ANN on our training data. 
…
  metrics = list(acc = metric_binary_accuracy), 
  loss = &amp;quot;binary_crossentropy&amp;quot;
)&lt;/code&gt;&lt;/pre&gt;
&lt;p&gt;We can then take a look at out model with the &lt;code&gt;summary&lt;/code&gt; function.&lt;/p&gt;
&lt;pre class="r"&gt;&lt;code&gt;summary(model)&lt;/code&gt;&lt;/pre&gt;
&lt;pre&gt;&lt;code&gt;_______________________________________________________________________________________
Layer (type)                Output Shape       Param #    Connected to                 
=======================================================================================
input_question1 (InputLayer (None, 20)         0                                       
_______________________________________________________________________________________
input_question2 (InputLayer (None, 20)         0                                       
_______________________________________________________________________________________
embedding_1 (Embedding)     (None, 20, 128)    6400256    input_question1[0][0]        
                                                          input_question2[0][0]        
_______________________________________________________________________________________
lstm_1 (LSTM)               (None, 128)        131584     embedding_1[0][0]            
                                                          embedding_1[1][0]            
_______________________________________________________________________________________
dot_1 (Dot)                 (None, 1)          0          lstm_1[0][0]                 
                                                          lstm_1[1][0]                 
_______________________________________________________________________________________
dense_1 (Dense)             (None, 1)          2          dot_1[0][0]                  
=======================================================================================
Total params: 6,531,842
Trainable params: 6,531,842
Non-trainable params: 0
_______________________________________________________________________________________&lt;/code&gt;&lt;/pre&gt;
&lt;h2 id="model-fitting"&gt;Model fitting&lt;/h2&gt;
&lt;p&gt;Now we will fit and tune our model. However before proceeding let’s take a sample for validation.&lt;/p&gt;
…
model %&amp;gt;% compile(loss = &amp;quot;binary_crossentropy&amp;quot;, optimizer = &amp;quot;adam&amp;quot;)&lt;/code&gt;&lt;/pre&gt;
&lt;p&gt;We can see the full definition of the model by calling &lt;code&gt;summary&lt;/code&gt;:&lt;/p&gt;
&lt;pre class="r"&gt;&lt;code&gt;summary(model)&lt;/code&gt;&lt;/pre&gt;
&lt;pre&gt;&lt;code&gt;_________________________________________________________________________________________
Layer (type)                 Output Shape       Param #    Connected to                  
=========================================================================================
input_1 (InputLayer)         (None, 1)          0                                        
_________________________________________________________________________________________
input_2 (InputLayer)         (None, 1)          0                                        
_________________________________________________________________________________________
embedding (Embedding)        (None, 1, 128)     2560128    input_1[0][0]                 
                                                           input_2[0][0]                 
_________________________________________________________________________________________
flatten_1 (Flatten)          (None, 128)        0          embedding[0][0]               
_________________________________________________________________________________________
flatten_2 (Flatten)          (None, 128)        0          embedding[1][0]               
_________________________________________________________________________________________
dot_1 (Dot)                  (None, 1)          0          flatten_1[0][0]               
                                                           flatten_2[0][0]               
_________________________________________________________________________________________
dense_1 (Dense)              (None, 1)          2          dot_1[0][0]                   
=========================================================================================
Total params: 2,560,130
Trainable params: 2,560,130
Non-trainable params: 0
_________________________________________________________________________________________&lt;/code&gt;&lt;/pre&gt;
&lt;h2 id="model-training"&gt;Model Training&lt;/h2&gt;
&lt;p&gt;We will fit t
…
&lt;li&gt;&lt;code&gt;input_shape&lt;/code&gt; is the shape of the image tensors that you’ll feed to the network. This argument is purely optional: if you don’t pass it, the network will be able to process inputs of any size.&lt;/li&gt;
&lt;/ul&gt;
&lt;p&gt;Here’s the detail of the architecture of the VGG16 convolutional base. It’s similar to the simple convnets you’re already familiar with:&lt;/p&gt;
&lt;pre class="r"&gt;&lt;code&gt;summary(conv_base)&lt;/code&gt;&lt;/pre&gt;
&lt;pre&gt;&lt;code&gt;Layer (type)                     Output Shape          Param #  
================================================================
input_1 (InputLayer)             (None, 150, 150, 3)   0       
________________________________________________________________
block1_conv1 (Convolution2D)     (None, 150, 150, 64)  1792     
________________________________________________________________
block1_conv2 (Convolution2D)     (None, 150, 150, 64)  36928    
________________________________________________________________
block1_pool (MaxPooling2D)       (None, 75, 75, 64)    0        
________________________________________________________________
block2_conv1 (Convolution2D)     (None, 75, 75, 128)   73856    
________________________________________________________________
block2_conv2 (Convolution2D)     (None, 75, 75, 128)   147584   
________________________________________________________________
block2_pool (MaxPooling2D)       (None, 37, 37, 128)   0        
________________________________________________________________
block3_conv1 (Convolution2D)     (None, 37, 37, 256)   295168   
________________________________________________________________
block3_conv2 (Convolution2D)     (None, 37, 37, 256)   590080   
________________________________________________________________
block3_conv3 (Convolution2D)     (None, 37, 37, 256)   590080   
________________________________________________________________
block3_pool (MaxPooling2D)       (None, 18, 18, 256)   0        
________________________________________________________________
block4_conv1 (Convolution2D)     (None, 18, 18, 512)   1180160  
________________________________________________________________
block4_conv2 (Convolution2D)     (None, 18, 18, 512)   2359808  
________________________________________________________________
block4_conv3 (Convolution2D)     (None, 18, 18, 512)   2359808  
________________________________________________________________
block4_pool (MaxPooling2D)       (None, 9, 9, 512)     0        
________________________________________________________________
block5_conv1 (Convolution2D)     (None, 9, 9, 512)     2359808  
________________________________________________________________
block5_conv2 (Convolution2D)     (None, 9, 9, 512)     2359808  
________________________________________________________________
block5_conv3 (Convolution2D)     (None, 9, 9, 512)     2359808  
________________________________________________________________
block5_pool (MaxPooling2D)       (None, 4, 4, 512)     0        
================================================================
Total params: 14,714,688
Trainable params: 14,714,688
Non-trainable params: 0&lt;/code&gt;&lt;/pre&gt;
&lt;p&gt;The final feature map has shape &lt;code&gt;(4, 4, 512)&lt;/code&gt;. That’s the feature on top of which you’ll stick a densely connected classifier.&lt;/p&gt;
&lt;p&gt;At this point, there are two ways you could proceed:&lt;/p&gt;
…
&lt;p&gt;The &lt;code&gt;input_shape&lt;/code&gt; argument to the first layer specifies the shape of the input data (a length 784 numeric vector representing a grayscale image). The final layer outputs a length 10 numeric vector (probabilities for each digit) using a &lt;a href="https://en.wikipedia.org/wiki/Softmax_function"&gt;softmax activation function&lt;/a&gt;.&lt;/p&gt;
&lt;p&gt;Use the &lt;code&gt;summary()&lt;/code&gt; function to print the details of the model:&lt;/p&gt;
&lt;pre class="r"&gt;&lt;code&gt;summary(model)&lt;/code&gt;&lt;/pre&gt;
&lt;pre style="box-shadow: none;"&gt;&lt;code&gt;Model
________________________________________________________________________________
Layer (type)                        Output Shape                    Param #     
================================================================================
dense_1 (Dense)                     (None, 256)                     200960      
________________________________________________________________________________
dropout_1 (Dropout)                 (None, 256)                     0           
________________________________________________________________________________
dense_2 (Dense)                     (None, 128)                     32896       
________________________________________________________________________________
dropout_2 (Dropout)                 (None, 128)                     0           
________________________________________________________________________________
dense_3 (Dense)                     (None, 10)                      1290        
================================================================================
Total params: 235,146
Trainable params: 235,146
Non-trainable params: 0
________________________________________________________________________________&lt;/code&gt;&lt;/pre&gt;
&lt;p&gt;Next, compile the model with appropriate loss function, optimizer, and metrics:&lt;/p&gt;
&lt;pre class="r"&gt;&lt;code&gt;model %&amp;gt;% compile(
…
